03 Сверточная сеть/best_model.pth (torch, 530914 bytes, 26 tensors)

sequental.0.weight f4 [32, 1, 3, 3]
0	0xbded5630	-0.115887046
1	0x3e66e02e	0.22546455
2	0xbe61c86f	-0.22049116
3	0x3df7da0e	0.121021375
4	0xbd108be5	-0.035289664
5	0x3dc95944	0.09831479
6	0x3db5d8aa	0.08879216
7	0xbd96eee1	-0.07369781
8	0xbdbd7636	-0.092510626
9	0xbea31970	-0.31855345
10	0xbdc3b15c	-0.09555313
11	0x3e80074b	0.25005564
12	0xbe2e8ed7	-0.17046677
13	0x3bddccc5	0.006768795
14	0xbd030899	-0.03199062
15	0x3e808ada	0.25105935
16	0x3e8d4352	0.27590424
17	0xbe2f6aad	-0.17130537
18	0x3df8acde	0.12142347
19	0x3e19df36	0.15026554
20	0xbe16b858	-0.14718759
21	0x3dfad822	0.12248255
22	0x3dd692d1	0.10477222
23	0xbdd52b56	-0.10408656
24	0xbdd7fcc6	-0.105462596
25	0xbe1a9e66	-0.15099487
26	0xbd234b4c	-0.03986673
27	0xbe4bdb04	-0.19907767
28	0x3e967661	0.2938719
29	0xbd1869fd	-0.037210453
30	0x3e27a87c	0.16372865
31	0x3d66e0e5	0.05636682
32	0xbdfbdf48	-0.12298447
33	0x3e8f67f8	0.2800901
34	0xbdc0ccee	-0.09414087
35	0x3e692759	0.22768916
36	0x3db80dbe	0.08986996
37	0xbe53886d	-0.20657511
38	0xbeaea017	-0.34106514
39	0x3d468b2e	0.048472576
40	0xbd0f0d4c	-0.03492479
41	0x3e9236a9	0.28557327
42	0x3e4b12db	0.19831412
43	0x3e7e2f57	0.24822746
44	0xbe5d0cdc	-0.21586937
45	0x3cbf17af	0.023326723
46	0xbe65b293	-0.22431402
47	0x3e9a4b49	0.30135563
48	0x3e778279	0.24170865
49	0xbe2678a5	-0.1625696
50	0x3cf425f0	0.029803246
51	0x3e6a7985	0.22897919
52	0x3d742b23	0.05961145
53	0xbe388496	-0.18019328
54	0xbe4ab707	-0.19796382
55	0xbe5800d7	-0.2109407
56	0xbe84f02b	-0.25964484
57	0xbe470347	-0.19434844
58	0x3e8caf08	0.27477288
59	0x3d6ad4ea	0.057331957
60	0xbe126c97	-0.14299236
61	0xbd69aef2	-0.057051606
62	0x3e7b36fb	0.24532692
63	0x3e261d15	0.16222031
64	0xbdc58231	-0.09643973
65	0xbe39e7ee	-0.1815488
66	0xbc509959	-0.012731873
67	0xbe8e9f4f	-0.27855918
68	0x3e7f57e6	0.24935874
69	0xbe936b19	-0.28792647
70	0xbe41c314	-0.18922073
71	0xbe088a85	-0.13334091
72	0x3e5c8dbf	0.21538447
73	0xbd87aaf5	-0.06624404
74	0x3d513bf0	0.05108255
75	0x3d70dbd1	0.058803383
76	0x3bd8a7ca	0.006611799
77	0xbe99c1f4	-0.30030787
78	0x3e95a118	0.29224467
79	0xbd83d06a	-0.06436236
80	0xbe4c9f53	-0.19982652
81	0xbea756be	-0.32683367
82	0x3d837429	0.0641864
83	0xbe0a8ab1	-0.13529469
84	0xbe5bc653	-0.21462373
85	0x3d49f4d0	0.049305737
86	0xbe37039d	-0.17872472
87	0x3e0f28eb	0.13980453
88	0x3c4cd011	0.012500779
89	0xbb2c8775	-0.0026325856
90	0xbe615884	-0.22006422
91	0x3e018415	0.12648042
92	0x3d922d45	0.07137541
93	0xbc8e43b4	-0.017366268
94	0x3e8ed299	0.27895048
95	0xbdbbc490	-0.09168351
96	0x3e5ec118	0.21753347
97	0xbe3cb4da	-0.18428364
98	0x3e44a4fc	0.19203562
99	0xbe93a2e4	-0.28835213
100	0x3d74e2f8	0.059786767
101	0xbe13f105	-0.1444741
102	0x3e6ac790	0.2292769
103	0xbd0faab3	-0.0350749
104	0x3e2ca04b	0.16858022
105	0x3df5fbe8	0.12010938
106	0x3e4b8a80	0.19877052
107	0xbe9d676a	-0.3074296
108	0xbe487953	-0.19577532
109	0x3e0ece65	0.13945921
110	0xbe8801cf	-0.2656388
111	0x3d1ba2a6	0.03799691
112	0xbd879b93	-0.0662147
113	0x3cf78c86	0.030218374
114	0x3e843c50	0.25827265
115	0x3de8716d	0.11349759
116	0x3c782f43	0.015147987
117	0x3e02af95	0.12762292
118	0xbe32f881	-0.17477609
119	0x3e1e54d8	0.15462053
120	0x3dcfcc35	0.10146371
121	0x3e37c8df	0.1794772
122	0xbe40ed07	-0.18840419
123	0xbbac72b9	-0.0052626994
124	0xbdf2d610	-0.118572354
125	0xbe94d7b3	-0.29070815
126	0x3dab058e	0.08350669
127	0x3da336e3	0.07969453
128	0xbde4a94e	-0.11165105
129	0xbe1033b7	-0.14082228
130	0x3d983690	0.07432282
131	0xbde1a958	-0.11018628
132	0xbdff47f7	-0.12464898
133	0xbe650e5a	-0.22368756
134	0xbe71c59b	-0.23610537
135	0xbe966bfc	-0.2937926
136	0xbd5d8925	-0.05408587
137	0x3db1f53e	0.08689354
138	0xbe787c27	-0.2426611
139	0xbe91815d	-0.2841901
140	0x3c8f532d	0.017495716
141	0xbe268f57	-0.16265617
142	0x3b610f69	0.003434146
143	0x3e995648	0.2994864
144	0xbe943deb	-0.2895349
145	0xbe7c8f24	-0.24663979
146	0xbdb08a9d	-0.086201884
147	0x3cb6af7a	0.02230047
148	0x3d9feaa6	0.078084275
149	0x3e3319be	0.17490289
150	0x3e993ee1	0.29930785
151	0x3e85bd9b	0.2612122
152	0xbe0ea254	-0.13929111
153	0x3df29b3c	0.11846015
154	0x3d346032	0.04403705
155	0x3cba1ea5	0.02271969
156	0xbe3d6dba	-0.18498889
157	0xbe80d3fd	-0.25161734
158	0xbe8ccd93	-0.2750059
159	0x3d5bef6f	0.05369514
160	0x3e073049	0.13202013
161	0xbe51c9c8	-0.2048713
162	0x3c63d059	0.013904654
163	0xbe7b8730	-0.24563289
164	0xbe387d00	-0.18016434
165	0xbdf9725b	-0.12180015
166	0xbd642a6e	-0.055704527
167	0x3d6bbec2	0.057554968
168	0x3e01ed9e	0.126883
169	0x3e61fb0f	0.22068428
170	0xbdac3a2c	-0.08409533
171	0xbe3e1580	-0.18562889
172	0x3da00b98	0.07814711
173	0x3e0a819e	0.13526008
174	0x3e807be9	0.25094536
175	0x3dbdce5f	0.09267878
176	0xbe7d27cb	-0.24722211
177	0x3e935514	0.28775847
178	0xbe110960	-0.14163733
179	0x3e5509d5	0.20804532
180	0x3db2bc90	0.08727372
181	0xbdfbead0	-0.12300646
182	0x3de5f9dd	0.11229298
183	0xbcbbc9c6	-0.022923362
184	0x3e813884	0.2523843
185	0x3d828b77	0.06374257
186	0x3ea35bdd	0.31906024
187	0xbe3285ec	-0.174339
188	0xbe32651d	-0.17421384
189	0xbdef9053	-0.116974495
190	0xbe59b797	-0.2126144
191	0x3da60829	0.08107025
192	0xbe728f80	-0.23687553
193	0x3d41e560	0.04733789
194	0xbd181e5e	-0.037138335
195	0xbc7f4ffb	-0.015583034
196	0xbd753d81	-0.059873108
197	0xbdf15334	-0.11783448
198	0xbe0d536e	-0.13801357
199	0x3e3d79ab	0.18503444
200	0x3e1e3a58	0.15451944
201	0x3e3cc4aa	0.18434396
202	0x3e999ad5	0.3000094
203	0xbe4b7bdb	-0.19871466
204	0xbe72db99	-0.23716582
205	0xbe1a162c	-0.1504752
206	0x3e6786e9	0.22610058
207	0xbea7238a	-0.32644302
208	0xbe3eb109	-0.18622221
209	0x3e8d33fa	0.27578717
210	0x3e9893bf	0.2980022
211	0x3cc68966	0.024235439
212	0xbdc78f80	-0.09744167
213	0xbe8717d9	-0.26385382
214	0x3e9c4308	0.3051989
215	0xbe0bde1e	-0.1365895
216	0x3daecc39	0.08535046
217	0x3dddc444	0.1082845
218	0x3d83abcd	0.06429253
219	0xbe95fd0e	-0.29294628
220	0x3e59ecaa	0.21281686
221	0x3e44ba91	0.19211794
222	0x3e4a031c	0.19727749
223	0xbe06b0e4	-0.13153416
224	0xbe51340a	-0.20430008
225	0x3e6948a2	0.22781613
226	0xbda7e88f	-0.08198654
227	0x3d961c23	0.073295854
228	0xbda921ae	-0.08258377
229	0xbdd7ff6d	-0.105467655
230	0xbe04c0a5	-0.12964113
231	0xbdea0e93	-0.11428561
232	0x3e957ed9	0.2919834
233	0x3e879aee	0.2648539
234	0x3e82c28c	0.25539052
235	0x3e96433c	0.2934817
236	0xbe74d6bb	-0.23910038
237	0x3e0ced78	0.13762462
238	0xbe865ae8	-0.2624123
239	0x3e9d3cb7	0.30710384
240	0xbe5db722	-0.21651891
241	0x3e093d9a	0.13402405
242	0xbdb20b5e	-0.08693574
243	0x3e9ef780	0.31048203
244	0xbe6489bc	-0.22318166
245	0x3e8bc3dc	0.27297866
246	0xbe0f9175	-0.14020331
247	0xbe962189	-0.2932246
248	0x3db01749	0.08598191
249	0xbe6acc77	-0.2292956
250	0xbe54abf1	-0.20768715
251	0x3dcedeba	0.101010755
252	0xbdc8c89f	-0.098038904
253	0x3e14663e	0.14492127
254	0xbd163f71	-0.036681596
255	0x3ddf2082	0.10894872

sequental.0.bias f4 [32]
0	0x3830f71d	4.2191812e-05
1	0x3a806112	0.0009794554
2	0x3cfc629a	0.030808736
3	0xb8b68ae8	-8.7043096e-05
4	0xbc6dc1f1	-0.014511571
5	0x3c894b1a	0.016759444
6	0x35cf88ca	1.5462513e-06
7	0xb58f2dcd	-1.066766e-06
8	0xbd4609b0	-0.048349082
9	0xbae96279	-0.0017805836
10	0xb6524a1b	-3.1335574e-06
11	0x3cc18d90	0.023627073
12	0x36987440	4.5434863e-06
13	0xbaccf1a7	-0.0015635983
14	0xb8c0d514	-9.194962e-05
15	0xb67c2ad5	-3.7575858e-06
16	0xb6a821c7	-5.0107224e-06
17	0x37a3c565	1.9523033e-05
18	0xb743cac8	-1.1670119e-05
19	0x381cbef1	3.7371126e-05
20	0xbae25d74	-0.0017270283
21	0x36b0d204	5.269658e-06
22	0x3d0cf2a7	0.0344111
23	0x379d875e	1.8778894e-05
24	0xb802971d	-3.113515e-05
25	0xba830562	-0.0009996111
26	0x373a8491	1.1117329e-05
27	0xbd35ba14	-0.04436691
28	0x35fae6da	1.8693638e-06
29	0xb81222a4	-3.4841374e-05
30	0xbc71563a	-0.014730031
31	0xb7fbfe41	-3.0039928e-05

sequental.1.weight f4 [32]
0	0x3f7a43be	0.97759616
1	0x3f753898	0.9578948
2	0x3f798d7e	0.97481525
3	0x3f70e17c	0.9409406
4	0x3f749024	0.9553244
5	0x3f7c3c94	0.98529935
6	0x3f778a14	0.96695065
7	0x3f7937cc	0.97350764
8	0x3f807d93	1.0038322
9	0x3f76d4ee	0.96418655
10	0x3f70e92e	0.94105804
11	0x3f73ee26	0.9528526
12	0x3f73ee9b	0.9528596
13	0x3f777545	0.96663314
14	0x3f797b31	0.974536
15	0x3f7ad419	0.97979885
16	0x3f74ed6f	0.95674795
17	0x3f7d69db	0.9898965
18	0x3f79ca96	0.97574747
19	0x3f745a4d	0.9545029
20	0x3f74a02e	0.95556915
21	0x3f7c2672	0.9849616
22	0x3f75cfea	0.96020377
23	0x3f741f1a	0.9535996
24	0x3f74fc34	0.9569733
25	0x3f754067	0.95801395
26	0x3f73a85c	0.9517877
27	0x3f7bbd36	0.9833559
28	0x3f741e9d	0.9535921
29	0x3f7334c8	0.9500241
30	0x3f7fe351	0.9995623
31	0x3f770a35	0.9649995

sequental.1.bias f4 [32]
0	0x3d4e803d	0.050415266
1	0x3c8a585c	0.016887836
2	0xbcfcbe10	-0.030852348
3	0x3c012c2a	0.007884065
4	0x3d530314	0.051516607
5	0x3cf2e0a6	0.029648136
6	0xbcc0f3a3	-0.023553675
7	0xbc1d9458	-0.009617887
8	0x3c93ef0b	0.01805832
9	0xba59c949	-0.0008307887
10	0x3c9a2dd4	0.01882068
11	0x3c75a25d	0.014992324
12	0x3d6ae8ca	0.05735091
13	0xbca0e7f3	-0.019641852
14	0xbcf69a21	-0.030102791
15	0xbd000f7e	-0.031264775
16	0x3d3ce43c	0.0461161
17	0xbc8b3e46	-0.016997468
18	0xbc99dd53	-0.018782293
19	0x3c340dbc	0.010989603
20	0x3bd9c658	0.006645959
21	0xbd425cb0	-0.047451675
22	0x3cf6e3cb	0.030137917
23	0x3c800998	0.015629575
24	0x3d0b0d16	0.033948027
25	0x3c2a2ef0	0.010387167
26	0x3d4793fc	0.048725113
27	0xbc179f19	-0.00925424
28	0x3cb081d5	0.021546284
29	0x3c7b0fd2	0.015323596
30	0x3a9e7430	0.001208907
31	0x3bd62e1c	0.0065362584

sequental.1.running_mean f4 [32]
0	0xba32e37b	-0.00068240584
1	0xb98981dc	-0.0002622743
2	0x3c8db6b9	0.017299043
3	0x3e26e101	0.1629677
4	0x3be97b3a	0.0071252855
5	0x3dde0b05	0.108419456
6	0xbe0d4e8f	-0.13799499
7	0xbe62084b	-0.22073476
8	0xbd539f54	-0.05166562
9	0xbe2fd8e1	-0.17172576
10	0x3ddc2a57	0.10750263
11	0x3cd03dac	0.025420032
12	0x3ca1f767	0.019771291
13	0xbd811392	-0.06302561
14	0xbe51057d	-0.2041225
15	0xbe3a115b	-0.18170683
16	0x3cb45614	0.022013701
17	0xbe221815	-0.15829499
18	0xbd9d4e25	-0.076809205
19	0x3e0d0509	0.13771452
20	0x3dc4d114	0.09610191
21	0xbe447353	-0.19184618
22	0x3e03f082	0.12884715
23	0xbcf3f7bd	-0.029781217
24	0x3d885d6c	0.06658444
25	0x3dc60bf6	0.0967025
26	0x3dbe0587	0.09278398
27	0xbe0e71d5	-0.13910611
28	0x3e26c443	0.16285805
29	0xbd32e159	-0.04367194
30	0xbceaf509	-0.028681295
31	0x3dd55e00	0.1041832

sequental.1.running_var f4 [32]
0	0x3b2001d7	0.002441516
1	0x3c0a8147	0.008453674
2	0x3bc5bf04	0.0060347337
3	0x3d113db3	0.03545923
4	0x3c4e7df0	0.012603268
5	0x3c7bcf18	0.015369199
6	0x3d0d6b47	0.034526136
7	0x3d87615a	0.06610365
8	0x3c8e6764	0.017383285
9	0x3d1f422c	0.038881466
10	0x3c8bf87d	0.017086262
11	0x3bcdb799	0.00627799
12	0x3c001010	0.00781633
13	0x3c552103	0.013008359
14	0x3d609900	0.054833412
15	0x3d825c7b	0.063652955
16	0x3c6f721b	0.014614607
17	0x3d18a891	0.037270132
18	0x3c5cc9ca	0.013475845
19	0x3cd7f861	0.026363553
20	0x3c81465b	0.015780618
21	0x3d3e05aa	0.04639212
22	0x3c912cb0	0.017721504
23	0x3bc93688	0.006140534
24	0x3c18e7e5	0.009332632
25	0x3c7153d3	0.014729458
26	0x3c81625f	0.015793977
27	0x3cebe4b4	0.028795578
28	0x3d1cfa7d	0.03832482
29	0x3c0ee32d	0.008721155
30	0x3c02a7a1	0.007974536
31	0x3c88d4a2	0.016702954

sequental.4.weight f4 [64, 32, 3, 3]
0	0xbbeeaa45	-0.0072834813
1	0xbd396809	-0.04526523
2	0xbc3420cf	-0.01099415
3	0xbd89315b	-0.06698867
4	0x3d1d7814	0.038444594
5	0xbd3b781a	-0.045768835
6	0xbd12b6ba	-0.035818793
7	0xbcf9dc28	-0.030500486
8	0xbcb9effd	-0.022697443
9	0x3cd6bfd3	0.026214516
10	0x3d1cbe24	0.03826727
11	0x3c606d0b	0.013697873
12	0xbcf848ef	-0.030308215
13	0xbd4ca513	-0.049962115
14	0x3cb601be	0.022217628
15	0x3d04b905	0.03240301
16	0xbd7ea259	-0.062166546
17	0x3d602aec	0.054728433
18	0xbcf07a10	-0.029355079
19	0x3b80d1f7	0.0039312798
20	0x3d3cdafb	0.046107274
21	0x3b92a22b	0.0044748983
22	0x3d80f956	0.06297557
23	0x3d086dd4	0.033307865
24	0xbd304e25	-0.043043274
25	0x3d54e546	0.051976465
26	0xbd4309d3	-0.04761679
27	0x3c1fcf03	0.009753945
28	0xbb1d1fb9	-0.0023975207
29	0x3caeb5b9	0.021326886
30	0xbccb3685	-0.02480627
31	0x3b71a2a8	0.0036870632
32	0xbca7f1ca	-0.020501036
33	0xbd5382ab	-0.051638287
34	0xbcecbfbb	-0.028900018
35	0xbd0d93d3	-0.034564804
36	0xbcab54d2	-0.020914469
37	0xb9432827	-0.00018611607
38	0xbd3da5ae	-0.046300583
39	0x3ce7df22	0.02830464
40	0x3cb71fa3	0.022353953
41	0xbd0acfc7	-0.03388956
42	0x3d68cde5	0.05683698
43	0x3d1345ad	0.03595512
44	0x3d2f078c	0.042731807
45	0xbc51df00	-0.012809515
46	0x3c340ab7	0.010988883
47	0x3c1f948a	0.009740004
48	0xbb977f42	-0.0046233246
49	0xbc869081	-0.016426327
50	0x3d22af23	0.039717805
51	0x3c02e874	0.007989991
52	0xbbe55234	-0.0069983248
53	0xbc46745c	-0.012112703
54	0x3d4a6249	0.04941014
55	0x3b8e8fa3	0.004350619
56	0xbcca3c37	-0.024686916
57	0x3c708a31	0.014681385
58	0xbd2f2108	-0.04275611
59	0x3caeee5f	0.021353899
60	0xbc4e3673	-0.012586224
61	0xbc7fed0e	-0.015620483
62	0xbd215aeb	-0.039393347
63	0x3d693302	0.05693341
64	0x3c205142	0.009784998
65	0x3d2467e3	0.040138137
66	0xbd320c1e	-0.043468587
67	0xbd12bd28	-0.035824925
68	0x3bb92621	0.0056502973
69	0xbbed26a3	-0.007237272
70	0xbb4da3f8	-0.003137825
71	0xbd75d381	-0.06001616
72	0x3d4c427d	0.049868096
73	0x3ac8cb66	0.0015319407
74	0x3b9d4db8	0.0048005246
75	0xbd517187	-0.05113366
76	0xbd3d3331	-0.046191398
77	0xbd418a24	-0.04725088
78	0xbd2ff820	-0.04296124
79	0x3d3552b6	0.044268332
80	0x3b60b3f6	0.0034286953
81	0x3bfbb97d	0.007682024
82	0xbd1c799b	-0.03820191
83	0x3ccc645b	0.024950197
84	0xbb11efd6	-0.0022268197
85	0x3d28e7cc	0.041236684
86	0xbbb89c81	-0.005633891
87	0x3d3f70ae	0.04673832
88	0xbcdc63dc	-0.026903085
89	0x3d2b3a74	0.041803792
90	0xbd093a26	-0.03350272
91	0xbbb33c2e	-0.0054698205
92	0xbd1fa2ed	-0.038973738
93	0x3d006350	0.03134471
94	0x3d04d5a3	0.032430302
95	0x3c7105cd	0.014710856
96	0x3b1e9125	0.00241954
97	0x3cdb3731	0.026759716
98	0x3d1e01ea	0.038576044
99	0x3ce0d04b	0.027443072
100	0x3be584ef	0.0070043723
101	0xbd024af0	-0.031809747
102	0xbc8aa304	-0.016923435
103	0xbd535970	-0.051598966
104	0xbd30adf0	-0.04313463
105	0xbd481899	-0.048851583
106	0x3a805b10	0.0009792764
107	0x3d64a699	0.055822942
108	0xbd44fd7f	-0.048093315
109	0xbd1017af	-0.035178836
110	0xbc970f28	-0.018439844
111	0x3aa2952a	0.0012404073
112	0xbd1f0b7c	-0.03882931
113	0x3d06d4e9	0.03291789
114	0xbd2bdddf	-0.04195964
115	0x3c0e5094	0.0086862035
116	0x3d0c23f7	0.034213986
117	0xbd2c01c8	-0.041993886
118	0xbc9a5cfc	-0.018843167
119	0xbd170b5e	-0.036876075
120	0xbce2bfd5	-0.027679363
121	0xbd1f4b51	-0.038890187
122	0xbd5409e4	-0.051767245
123	0x3d70fc2d	0.058834244
124	0xbc3021e1	-0.010750265
125	0xbd70affe	-0.05876159
126	0x3c3dda13	0.0115876375
127	0xbd7bdfca	-0.06149272
128	0x3cae384a	0.021267075
129	0xbc8cb40e	-0.0171757
130	0x3d207bf1	0.0391807
131	0xbd60576e	-0.05477088
132	0x3d43c1a8	0.047792107
133	0xbd46a9fe	-0.04850196
134	0x3c8a89e1	0.016911449
135	0x3d596ee1	0.053084258
136	0x3d04517d	0.032304276
137	0x3d328af0	0.043589532
138	0x3c20d709	0.009816893
139	0x3c68b278	0.0142027065
140	0x3d43e93e	0.04782986
141	0x3c0a30b5	0.008434464
142	0xbc656816	-0.014001867
143	0x3d3db833	0.046318244
144	0x3d107cba	0.0352752
145	0x3b939671	0.004504018
146	0xbd218b06	-0.039439224
147	0x3c18b3a0	0.00932017
148	0xbd576a31	-0.052591506
149	0x3d061901	0.03273869
150	0x3cb2d898	0.021831796
151	0x3d6f052f	0.058354553
152	0x3c855811	0.016277345
153	0xbd2fa463	-0.04288138
154	0x3c889e24	0.01667697
155	0x3c9debc3	0.019277459
156	0x3cac9ef1	0.021071883
157	0x3d260e9a	0.04054127
158	0xbc2dd37b	-0.010609503
159	0x3d3c452d	0.04596441
160	0x3ca8c2b5	0.020600656
161	0x3bfae416	0.0076565845
162	0xbd561f7e	-0.052276127
163	0x3cc1a354	0.023637451
164	0xbc86363c	-0.016383283
165	0xbd57efd5	-0.052718956
166	0x3c9a105b	0.018806627
167	0x3cf2f395	0.029657165
168	0xbd09f927	-0.033684876
169	0xbb80d3bb	-0.0039314902
170	0xbd52fd29	-0.051510964
171	0x3d522982	0.051309116
172	0x3d34760b	0.044057887
173	0x3d5f795e	0.054559104
174	0xbd6d20c4	-0.057892576
175	0xbd6954cf	-0.056965645
176	0xbc6736a0	-0.014112145
177	0xbccd59be	-0.025067206
178	0x3ca9adc5	0.020712743
179	0xbd2707c8	-0.040778905
180	0xbb469be9	-0.0030305332
181	0xbd170fbb	-0.036880236
182	0xbc1b8377	-0.009491793
183	0xbc10f2fe	-0.008846996
184	0xbc9f4cf1	-0.019445868
185	0xbd448390	-0.04797703
186	0x3ccbaa8d	0.024861598
187	0x3c743dd1	0.014907316
188	0xbc1d26fc	-0.009591814
189	0xbc8f652b	-0.017504295
190	0xbc8b2c78	-0.016988978
191	0xbcba3e0b	-0.022734663
192	0xbc670574	-0.014100421
193	0x3d33cb5e	0.043895118
194	0xbc9db175	-0.019249657
195	0x3b87f2c4	0.004148813
196	0xbd581ef0	-0.05276388
197	0xbd603ef7	-0.054747548
198	0x3c0990bd	0.008396325
199	0x3c383bc8	0.011244722
200	0x3cdf9ffc	0.027297966
201	0xbc4332e3	-0.011913988
202	0x3d0ebbee	0.034847192
203	0x3d266604	0.040624633
204	0xbaac1407	-0.0013128527
205	0x3cb2a854	0.02180878
206	0x3d775c4a	0.060390748
207	0xbd5e8ca7	-0.054333355
208	0xbb528429	-0.003212223
209	0xbceddb4c	-0.029035233
210	0xbb2e7ecb	-0.0026625867
211	0xbd769348	-0.060199052
212	0xbc4407f9	-0.011964791
213	0xbd1c48a5	-0.038155217
214	0x3d603444	0.054737344
215	0xbbd35e58	-0.0064504556
216	0xbd3c0557	-0.04590353
217	0x3cd6991f	0.02619606
218	0xbd3c257d	-0.04593419
219	0xbcf47565	-0.029841134
220	0x3d24cf44	0.040236726
221	0x3d30b176	0.04313799
222	0xbd39bcb3	-0.045345973
223	0xbd149b55	-0.03628095
224	0x3d229430	0.039692104
225	0x3ca97729	0.020686703
226	0xbc70f867	-0.014707661
227	0x3d50e6a0	0.05100119
228	0x3d10ef29	0.03538433
229	0x3ce36286	0.02775694
230	0xbc8ed664	-0.017436214
231	0xbc120019	-0.008911156
232	0x3d28b113	0.041184496
233	0xbd0e0377	-0.034671273
234	0xbcf84092	-0.030304227
235	0x3cd843c8	0.026399508
236	0xbd53fe89	-0.051756416
237	0x3d10ff42	0.035399683
238	0x3c289e18	0.010291599
239	0xbc831169	-0.015999513
240	0x3c7fd5bf	0.015614926
241	0xbd01ab0b	-0.03165726
242	0x3cf47a96	0.02984361
243	0xbd27fe98	-0.041014284
244	0xbcf04375	-0.029329041
245	0x3d53d10b	0.05171303
246	0x3d3be8a5	0.045876164
247	0x3ca084c6	0.019594561
248	0x3d365e8f	0.04452377
249	0x3bc849ba	0.0061123045
250	0x3c654fcc	0.013996076
251	0xbd5a178d	-0.053245116
252	0x3d650887	0.055916335
253	0x3c27b944	0.010237042
254	0x3d11b5b7	0.035573687
255	0x3d3d5057	0.046219196

sequental.4.bias f4 [64]
0	0x34ff3acd	4.7540235e-07
1	0xb48b2ddb	-2.5924132e-07
2	0xb375da97	-5.7242314e-08
3	0x34657234	2.1368834e-07
4	0xb52c292c	-6.4134906e-07
5	0x3628b005	2.5136408e-06
6	0xb442ba8e	-1.8135526e-07
7	0x34a10789	2.999407e-07
8	0x34954733	2.7805217e-07
9	0x32448804	1.1439628e-08
10	0xb5222bd5	-6.0413487e-07
11	0xb58ff0a4	-1.0724366e-06
12	0xb481e21f	-2.4192647e-07
13	0xb3b55764	-8.4443656e-08
14	0xb5064704	-5.002223e-07
15	0xb3fce6cd	-1.1776647e-07
16	0xb35db29d	-5.161802e-08
17	0xb500deb9	-4.800782e-07
18	0x344bb2a2	1.8970835e-07
19	0x348e5557	2.6511654e-07
20	0xb4fde8a7	-4.72942e-07
21	0xb5934c44	-1.097455e-06
22	0x351ccb62	5.841049e-07
23	0xb5069f79	-5.0150953e-07
24	0xb4114b9a	-1.3531681e-07
25	0x3585f0e0	9.979376e-07
26	0xb5138595	-5.4956155e-07
27	0xb45e1526	-2.0683055e-07
28	0x35145b25	5.526693e-07
29	0x36444a8b	2.9249666e-06
30	0xb416a4f9	-1.4029855e-07
31	0xb5549b76	-7.920238e-07
32	0xb4d8623c	-4.030461e-07
33	0x35904938	1.0750146e-06
34	0x354c8cc1	7.6200746e-07
35	0x35169169	5.6090954e-07
36	0xb6b4351e	-5.3706017e-06
37	0xb5bc9876	-1.4051463e-06
38	0x354bd400	7.5931894e-07
39	0xb53357e4	-6.6810594e-07
40	0x348bad7c	2.6016994e-07
41	0x34aa1edd	3.1687424e-07
42	0xb58b7f35	-1.0393329e-06
43	0xb58d2e45	-1.0518785e-06
44	0x358111b8	9.616406e-07
45	0x347f0826	2.375169e-07
46	0x36016cb5	1.9285774e-06
47	0xb529601c	-6.3097264e-07
48	0x35d569c3	1.5900517e-06
49	0xb62b8650	-2.5559166e-06
50	0x352421ff	6.114423e-07
51	0xb62e6522	-2.5986888e-06
52	0xb50bf11f	-5.213241e-07
53	0x3528d487	6.2894145e-07
54	0x362753b5	2.4933663e-06
55	0xb4dcbc0c	-4.1115015e-07
56	0x3606ba75	2.0076088e-06
57	0x35422266	7.232069e-07
58	0x3685c1d3	3.986273e-06
59	0xb4958636	-2.7851064e-07
60	0xb46a1cf6	-2.1803484e-07
61	0x33fee90c	1.1870188e-07
62	0x34e930fc	4.3435273e-07
63	0xb3c5364e	-9.183405e-08

sequental.5.weight f4 [64]
0	0x3f6f81cc	0.9355743
1	0x3f6f601c	0.93506026
2	0x3f6b161d	0.9183062
3	0x3f70f7bc	0.9412801
4	0x3f6d38b5	0.92664653
5	0x3f71452b	0.94246167
6	0x3f717ad1	0.9432803
7	0x3f714e5f	0.9426021
8	0x3f719296	0.943643
9	0x3f6f8631	0.93564135
10	0x3f765a07	0.9623112
11	0x3f6de468	0.92926645
12	0x3f6e0b5f	0.929861
13	0x3f765ccc	0.96235347
14	0x3f6ebce1	0.93256956
15	0x3f74c601	0.9561463
16	0x3f6fd8d6	0.9369024
17	0x3f74b5a6	0.95589674
18	0x3f703916	0.93837106
19	0x3f6f3533	0.9344055
20	0x3f6f6a15	0.93521243
21	0x3f763915	0.9618085
22	0x3f775799	0.9661804
23	0x3f72e071	0.9487372
24	0x3f70b199	0.9402099
25	0x3f710fa6	0.941645
26	0x3f6c3b18	0.9227767
27	0x3f6fe1fc	0.937042
28	0x3f78ade4	0.97140336
29	0x3f7648c8	0.96204805
30	0x3f6d7ab8	0.9276538
31	0x3f71a474	0.9439156
32	0x3f6c39d8	0.9227576
33	0x3f70bdb1	0.94039446
34	0x3f73122b	0.949496
35	0x3f75aa2a	0.95962775
36	0x3f72bfe9	0.9482408
37	0x3f7110f7	0.9416651
38	0x3f6de8cd	0.9293335
39	0x3f79e9b6	0.9762224
40	0x3f6f63d3	0.93511695
41	0x3f737268	0.95096445
42	0x3f72c467	0.94830936
43	0x3f712f7e	0.9421309
44	0x3f736b29	0.9508539
45	0x3f743c88	0.95404863
46	0x3f73d8e5	0.9525283
47	0x3f70b885	0.94031554
48	0x3f72bf06	0.9482273
49	0x3f6bfd2e	0.92183197
50	0x3f73d3cc	0.9524505
51	0x3f723d2f	0.9462461
52	0x3f708a96	0.93961465
53	0x3f6acfea	0.917235
54	0x3f775cef	0.9662618
55	0x3f70a0f2	0.93995583
56	0x3f70503d	0.93872434
57	0x3f6c284d	0.92248994
58	0x3f76b62b	0.96371716
59	0x3f748185	0.9551013
60	0x3f70e462	0.94098485
61	0x3f6fc58c	0.9366081
62	0x3f7560fd	0.9585112
63	0x3f6d33d4	0.9265721

sequental.5.bias f4 [64]
0	0xbc642285	-0.013924246
1	0xbc0ecd2c	-0.008715909
2	0x3c12404f	0.008926465
3	0xbb3944a7	-0.002826968
4	0xbc59e849	-0.01330001
5	0x3cb413aa	0.021982033
6	0xbb6fae73	-0.0036572486
7	0x3a104ad1	0.00055043126
8	0xbbd4d344	-0.0064949114
9	0x3c3b2f46	0.011424845
10	0xbce2ef18	-0.0277019
11	0x3c4e20e0	0.01258108
12	0xbbd1f2d8	-0.006407123
13	0xbc2dd6f2	-0.010610329
14	0x3c47d546	0.012196844
15	0xbd26e28e	-0.040743403
16	0xbc56129a	-0.013065958
17	0xbc1e87e7	-0.009675956
18	0x3b8f0abc	0.0043652933
19	0x3c916cd8	0.017752096
20	0xbbfa954e	-0.007647193
21	0x3c983535	0.018580059
22	0xbce94315	-0.02847437
23	0x3b8177f2	0.003951066
24	0xbbd60f18	-0.006532561
25	0xbaabfb65	-0.0013121186
26	0x3c9cd0b6	0.01914249
27	0xbc1cf740	-0.009580433
28	0xbcc379a1	-0.023861708
29	0xbc613cbd	-0.013747391
30	0xbc336c7f	-0.01095116
31	0xbb215a1d	-0.0024620362
32	0xbc3c8593	-0.011506456
33	0x3be901f0	0.0071108267
34	0x3c2b7b63	0.010466429
35	0x3c1ae354	0.009453613
36	0xbc7ca2d4	-0.015419681
37	0x3c1f6ece	0.009731008
38	0xbca6d4b9	-0.020365106
39	0xbc9c494e	-0.019077923
40	0x3a4bb136	0.0007770242
41	0xbc5abe5c	-0.013351049
42	0xbc11b689	-0.008893617
43	0x3b69645c	0.0035612797
44	0x3c5c452e	0.013444228
45	0xbbb0c18b	-0.005394166
46	0x3c36b73d	0.011152086
47	0x3caf7262	0.021416847
48	0xbc538f0b	-0.012912522
49	0x3b7d594f	0.0038657968
50	0xbbb40ca9	-0.0054946733
51	0x3c86dcd4	0.01646272
52	0xbbafaf71	-0.0053614904
53	0x3b11eea9	0.0022267497
54	0xba8e1918	-0.0010841219
55	0x3cc5a23f	0.024125217
56	0xbb387bbd	-0.0028149926
57	0xbcc41a73	-0.023938393
58	0xbc58dcb2	-0.013236212
59	0xbcfd3ba7	-0.030912234
60	0xbc3b60bf	-0.01143664
61	0x3c7ef8f4	0.015562285
62	0xbc4934e4	-0.0122806765
63	0x3bb0cb31	0.005395316

sequental.5.running_mean f4 [64]
0	0xbeb07690	-0.34465456
1	0x3e40ebd2	0.18839958
2	0xbeaa8546	-0.33304805
3	0xbea40d13	-0.32041225
4	0x3dbe6855	0.092972435
5	0xbe3d79a7	-0.18503438
6	0x3d8296b1	0.06376398
7	0x3c1ebc97	0.009688518
8	0xbd546398	-0.051852793
9	0xbed52662	-0.41630846
10	0x3e441199	0.19147338
11	0xbe7f4619	-0.24929084
12	0x3b8c3a01	0.0042793755
13	0xbf3f3c57	-0.74701446
14	0xbe92c509	-0.2866595
15	0xbeadfc0e	-0.33981365
16	0x3e61dd1f	0.22057007
17	0x3cbd0eb2	0.023078296
18	0xbcd0b740	-0.025478005
19	0x3cbe6f00	0.023246288
20	0x3e950be3	0.2911063
21	0xbd3dfb52	-0.046382256
22	0xbecc2143	-0.39869127
23	0xbeb3a427	-0.35086176
24	0xbda99b46	-0.08281569
25	0x3e6057b2	0.21908453
26	0xbd5ead86	-0.054364704
27	0xbea0c17b	-0.31397614
28	0xbe97d750	-0.29656458
29	0x3c5336b6	0.012891462
30	0xbeaa3eee	-0.33251137
31	0x3d4ece1c	0.05048953
32	0x3e192060	0.14953756
33	0xbeee1c48	-0.46505952
34	0x3e4a431b	0.19752161
35	0xbf262151	-0.64894587
36	0xbe37f6ba	-0.17965212
37	0x3eb2ae0f	0.3489842
38	0x3dcbd6c8	0.09953076
39	0xbf0b6711	-0.5445414
40	0xbb9ff500	-0.004881501
41	0x3f212d8f	0.6296014
42	0x3df00390	0.117194295
43	0xbeaac4f9	-0.33353403
44	0xbe915ed7	-0.2839267
45	0xbe3fbeec	-0.18725175
46	0x3c83c048	0.016082898
47	0xbe66627a	-0.22498503
48	0xbd5a5411	-0.05330283
49	0x3ea71884	0.3263589
50	0xbdc2ea2a	-0.095173195
51	0x3bc9262f	0.006138585
52	0xbebf3f5f	-0.37353036
53	0x3c06f8ad	0.008238
54	0xbe373868	-0.17892611
55	0xbeb75deb	-0.3581384
56	0x3dd95fe7	0.10613995
57	0x3cbe9873	0.023266053
58	0xbe561d59	-0.20909633
59	0xbf665c5e	-0.8998469
60	0x3bf66cbc	0.0075202864
61	0xbe954333	-0.2915283
62	0x3e74ec47	0.23918258
63	0x3ca4842c	0.020082556

sequental.5.running_var f4 [64]
0	0x3e4c6571	0.19960572
1	0x3e736b8d	0.23771496
2	0x3dec6bd4	0.11544004
3	0x3e030089	0.12793173
4	0x3e5a59a1	0.21323253
5	0x3dc6557b	0.09684273
6	0x3ea3a96b	0.31965193
7	0x3e30bb6e	0.17258999
8	0x3e3460c3	0.17615037
9	0x3e059cd3	0.13048105
10	0x3e42eeab	0.19036357
11	0x3e94595a	0.2897442
12	0x3e787364	0.24262768
13	0x3ec32782	0.3811608
14	0x3e12da5c	0.1434111
15	0x3e4a76ab	0.1977183
16	0x3e2fea11	0.17179133
17	0x3e4fd922	0.20297673
18	0x3e24f36a	0.1610848
19	0x3e449d01	0.19200517
20	0x3e567a2d	0.20945044
21	0x3e2184f8	0.1577338
22	0x3ea6a771	0.32549623
23	0x3e2d5daa	0.16930261
24	0x3e4f1228	0.2022177
25	0x3e58f525	0.21187265
26	0x3dfd9ba7	0.12383204
27	0x3e6eaf06	0.23308954
28	0x3e1a40e8	0.15063822
29	0x3e0692e8	0.13141978
30	0x3e90830a	0.28224975
31	0x3e109a5f	0.14121388
32	0x3f1f9e03	0.6235048
33	0x3de170dc	0.11007854
34	0x3e1572a6	0.14594516
35	0x3e0217b4	0.12704355
36	0x3e28f40b	0.16499345
37	0x3e582b6f	0.21110319
38	0x3eacac45	0.3372518
39	0x3e41a87e	0.18911931
40	0x3e762d51	0.24040724
41	0x3e6ea71d	0.23305936
42	0x3e313bb9	0.17307939
43	0x3e0d5151	0.13800551
44	0x3e2c0d41	0.16801931
45	0x3e35ec56	0.17765936
46	0x3e41678d	0.18887158
47	0x3e47d56f	0.19515012
48	0x3da433eb	0.08017715
49	0x3e370913	0.17874555
50	0x3e120bf6	0.14262375
51	0x3e21db29	0.15806259
52	0x3e8b5df2	0.27220112
53	0x3e4f6919	0.20254935
54	0x3dbc9391	0.092078336
55	0x3e61a37a	0.22035018
56	0x3e33a343	0.17542748
57	0x3e26fd73	0.1630762
58	0x3dd89434	0.105751425
59	0x3e20e28a	0.15711418
60	0x3e1f4a51	0.15555693
61	0x3e3d852e	0.18507835
62	0x3e16482d	0.1467597
63	0x3e74fdae	0.23924896

sequental.8.weight f4 [128, 64, 3, 3]
0	0xbb92d260	-0.004480645
1	0x3cc2103a	0.023689378
2	0xbcd1f1a1	-0.025627913
3	0x3ac9dfa7	0.0015401737
4	0xbcf8039e	-0.030275162
5	0x3ccf6817	0.025318189
6	0xbc3be26f	-0.01146756
7	0x3c8a8acd	0.016911888
8	0x3cd9a547	0.026568068
9	0x3aefb1aa	0.0018287201
10	0x3b28194e	0.0025649848
11	0x3d2283e5	0.039676566
12	0x3d01cfd9	0.03169236
13	0x3d140bc2	0.036144026
14	0x3cc06fe3	0.023490852
15	0x3b253ec7	0.002521442
16	0x3c7cf47c	0.015439149
17	0x3b4484f1	0.0029986466
18	0x3c06ee57	0.008235536
19	0xbc425556	-0.011861166
20	0x3ccd4e69	0.025061803
21	0xbc17b0b7	-0.009258441
22	0xbb152a40	-0.0022760779
23	0xbcb12ea3	-0.021628683
24	0x3c95ca06	0.018284809
25	0xbc290bf4	-0.010317791
26	0x3cd6aef4	0.026206471
27	0x3cfa978f	0.030589847
28	0xbc6cec94	-0.0144607015
29	0x3d272aa7	0.04081216
30	0xbc412945	-0.011789625
31	0xbd30ae8f	-0.043135222
32	0xbd014b70	-0.031566083
33	0xbb09c804	-0.002102376
34	0xbcb48f7b	-0.022041073
35	0x3cff3df5	0.031157473
36	0xbc4ac889	-0.012376913
37	0x3d07e503	0.033177387
38	0xbcb9f893	-0.022701537
39	0xbc60fbe8	-0.013731934
40	0x3c56dda5	0.013114368
41	0x3bde3d45	0.0067822062
42	0xbd46b36b	-0.04851095
43	0x3cc435ef	0.023951499
44	0xbcf337ce	-0.029689696
45	0xbc2ad729	-0.010427275
46	0xbc4a471a	-0.0123460535
47	0xbca46fe1	-0.02007288
48	0x3c5454bb	0.012959654
49	0xbc6fbe0b	-0.014632712
50	0xbc9ec291	-0.019379886
51	0x3c53a2c6	0.012917226
52	0x3cad735c	0.021173172
53	0xbaccb656	-0.0015618305
54	0x3ccb3b33	0.024808502
55	0xbc5fcf36	-0.013660243
56	0x3cc04847	0.023471965
57	0x3a59e9cd	0.0008312732
58	0xbd0d3c25	-0.034481186
59	0xbcc1c922	-0.023655478
60	0xbc343478	-0.010998838
61	0xbca5ec91	-0.020254405
62	0xbd2976c8	-0.041373044
63	0xbca20b39	-0.019780742
64	0xbc62051b	-0.013795163
65	0xbc26ed8c	-0.0101884715
66	0x3cb87740	0.0225178
67	0x398da00f	0.0002701287
68	0xbac3b982	-0.0014932605
69	0xbc4d6a16	-0.0125375
70	0xbc3af4e5	-0.0114109265
71	0x3b1ffe75	0.0024413143
72	0xbd38a15d	-0.045075763
73	0x3d119d10	0.035550177
74	0x3d15aa27	0.036539223
75	0xbc00d5fc	-0.007863518
76	0x3ca49958	0.020092651
77	0x3cd2d628	0.025736883
78	0xbbb55b6a	-0.005534579
79	0xbd1c7083	-0.038193237
80	0x3ce98e22	0.028510157
81	0xbb3204d5	-0.0027163525
82	0x3d005934	0.03133507
83	0xbaac8f4c	-0.0013165264
84	0x3c1f8d5d	0.0097382935
85	0x3d15667e	0.036474697
86	0xbcdc8a7a	-0.0269215
87	0xbbdcb46e	-0.006735376
88	0x3cb94018	0.02261357
89	0x3c9ab7a7	0.0188864
90	0x3c7fa203	0.015602591
91	0xbccde743	-0.025134688
92	0x3c321afd	0.010870692
93	0x3cbd5cce	0.023115542
94	0xbbffe9e6	-0.0078098653
95	0x3d3e8197	0.046510305
96	0x3c831104	0.015999325
97	0x3cde4ea1	0.027137103
98	0x3c9b83e6	0.018983793
99	0xbd196473	-0.03744931
100	0x3d382ae8	0.044962794
101	0x3ce97e40	0.028502584
102	0xbc3aa427	-0.011391676
103	0x3c8c8031	0.01715097
104	0x3b8f9073	0.0043812334
105	0xbc4ca9b9	-0.012491637
106	0xbc4980a8	-0.01229874
107	0xbb3ac2e6	-0.0028497516
108	0x3cbfbea7	0.02340634
109	0x3d1274a8	0.035755783
110	0xbd01e9cc	-0.031717107
111	0x3caa7fbd	0.020812863
112	0xbd0d7331	-0.034533683
113	0xbb000c38	-0.0019538533
114	0xbcf13594	-0.029444493
115	0xbd0ca109	-0.034333263
116	0xb92dddc9	-0.00016581187
117	0x3b30a43e	0.0026953365
118	0x3cbb45b1	0.02286038
119	0xbc032bfa	-0.00800609
120	0x3c75db79	0.01500594
121	0xbc47039f	-0.012146859
122	0x3cfe8b55	0.031072298
123	0x3ad7d88e	0.0016467737
124	0xbd270ab2	-0.040781684
125	0x3cde1baf	0.02711281
126	0x3c51be91	0.012801782
127	0xbd019bd6	-0.031642757
128	0xbc5c1b0d	-0.013434184
129	0x3c308784	0.010774497
130	0x3c6855ea	0.01418064
131	0x3ccfab13	0.02535013
132	0x3c73bf6f	0.014877184
133	0x3a166868	0.00057376036
134	0x3c27d3fd	0.010243413
135	0x3c713445	0.014721935
136	0xbcb65743	-0.022258407
137	0xbcae2abd	-0.021260614
138	0xbd16d926	-0.036828183
139	0xbd1ee9b3	-0.03879709
140	0x3c4eacd4	0.012614448
141	0xbd1bfa9a	-0.03808079
142	0x3ccdfb95	0.025144378
143	0x3a64dcf5	0.0008730435
144	0xbcf21c83	-0.029554611
145	0x3c93f4ad	0.018061006
146	0x3cdec504	0.027193554
147	0xbc343a1b	-0.011000182
148	0x3cb94279	0.022614704
149	0xbc8ff896	-0.01757459
150	0xbd378953	-0.044808697
151	0xbcf6b688	-0.030116335
152	0x3d1a3c2d	0.037655044
153	0xbc3fd0e7	-0.011707521
154	0xbc9541cb	-0.01821985
155	0x3b82e707	0.0039948258
156	0x3cc18210	0.023621589
157	0x3cabbaf2	0.020963166
158	0xbc95a970	-0.01826927
159	0xbbd3e159	-0.0064660725
160	0x3b1ecb39	0.0024230017
161	0x3d4efb23	0.05053247
162	0xbd0f651a	-0.035008527
163	0x3d3d9a47	0.04628971
164	0x3c0f0760	0.008729786
165	0xbc34be5f	-0.011031716
166	0x3c04ec9b	0.008113052
167	0xbca47247	-0.020074023
168	0xbc59cef6	-0.013293972
169	0x3c811510	0.015757114
170	0xbaa2b5da	-0.0012413815
171	0x3b8008ed	0.003907314
172	0xbd222a3f	-0.03959107
173	0xbc24b55c	-0.010053005
174	0xbcf648bd	-0.030063981
175	0xbcd49e76	-0.025954466
176	0x3d059f22	0.032622464
177	0xbc96b20b	-0.018395444
178	0xbca26c46	-0.01982702
179	0xb98b33cd	-0.0002655074
180	0x3c85c68f	0.016330032
181	0x3cbed055	0.0232927
182	0xbbba5a6f	-0.00568705
183	0x3cf8ccd2	0.030371103
184	0x3cde43ff	0.027132032
185	0xbca97f6c	-0.020690642
186	0xbcdbfc5c	-0.026853733
187	0xbbeae461	-0.007168338
188	0xbc30ecb1	-0.010798619
189	0x3c592bd1	0.013255076
190	0x3cb939df	0.022610603
191	0xbbdbbff2	-0.0067062313
192	0x3b9292d1	0.0044730683
193	0x3c8a2d26	0.016867232
194	0x3c9d636d	0.019212449
195	0x3d262d6a	0.040570654
196	0x3cc904b0	0.024538368
197	0xb9dda78d	-0.0004227724
198	0xbcbdb261	-0.023156347
199	0xbc8d71f7	-0.017266257
200	0xbca369e8	-0.019947961
201	0xbc754e55	-0.014972289
202	0x3d122c76	0.035686933
203	0x3d1a3148	0.037644655
204	0xbbd395b3	-0.0064570545
205	0xbd0bd5f5	-0.034139592
206	0xbcd920f9	-0.02650498
207	0x3d07880a	0.03308872
208	0x3c24fcdd	0.010070053
209	0x3c80b1cc	0.01570978
210	0xbc12f9be	-0.008970676
211	0x3bbdf941	0.0057975356
212	0xbcbe90a6	-0.023262333
213	0xbc847ecc	-0.016173743
214	0xbc726d60	-0.014796585
215	0xbc6c18d0	-0.014410213
216	0xbca70d8b	-0.0203922
217	0x3ba32743	0.0049790456
218	0xbcf227ec	-0.029560052
219	0xbc99f3e1	-0.018793048
220	0xbd2895fe	-0.04115867
221	0xba4968fe	-0.00076831866
222	0xbc8ec9a3	-0.017430132
223	0x3c1244d4	0.008927543
224	0x3cbf4ad0	0.023351103
225	0x3cf44d26	0.029821943
226	0xbd2fca0c	-0.042917296
227	0x3cf57740	0.02996409
228	0x3a48010d	0.0007629551
229	0xba677356	-0.0008829137
230	0xbc32d1fb	-0.010914321
231	0xbcd70e2b	-0.026251873
232	0x3b45f770	0.0030207299
233	0x3d190ec3	0.037367593
234	0xbc926ba5	-0.017873595
235	0x3b1cd500	0.0023930669
236	0x3c1968fa	0.009363407
237	0xba6ca00e	-0.00090265356
238	0xbcb6cfe8	-0.022315934
239	0xbd01441a	-0.031559087
240	0x3c2794f0	0.010228381
241	0xbc919fd8	-0.017776415
242	0x3bf11ef8	0.007358428
243	0x3c430ad6	0.011904439
244	0xbc84fdc1	-0.01623428
245	0x3d0b3dc2	0.033994444
246	0x3cf2a726	0.029620718
247	0x3c9ed114	0.019386806
248	0xbccd6dc9	-0.025076764
249	0x3c49bc25	0.012312924
250	0x3ca9e3ed	0.020738566
251	0x3b1da2d0	0.0024053343
252	0x3c8d765a	0.017268348
253	0x3c937b04	0.018002994
254	0x3d0e2c7a	0.034710385
255	0xbb192d11	-0.002337281

sequental.8.bias f4 [128]
0	0xb5079bdf	-5.051824e-07
1	0xb43012bc	-1.6398093e-07
2	0x35405c29	7.1659684e-07
3	0x35514fff	7.7974977e-07
4	0x35af3838	1.3054878e-06
5	0xb603d3ae	-1.9643735e-06
6	0x3359c52e	5.0703584e-08
7	0xb38a6310	-6.444145e-08
8	0xb4aa286e	-3.1694384e-07
9	0x343d217a	1.7614175e-07
10	0xb328a8da	-3.9269118e-08
11	0x36ae4583	5.1936963e-06
12	0x35ccf413	1.5270219e-06
13	0xb66d851a	-3.5393227e-06
14	0x33538aa1	4.9253348e-08
15	0xb30339b8	-3.055331e-08
16	0x347cbc60	2.353786e-07
17	0xb4986979	-2.8388948e-07
18	0xb5338e37	-6.6889646e-07
19	0xb524989e	-6.131685e-07
20	0x35c59cc4	1.4723269e-06
21	0x36231049	2.4298372e-06
22	0xb3f924bd	-1.1601649e-07
23	0x34d262d5	3.9187458e-07
24	0x35c6ceed	1.4812373e-06
25	0x35b3d60f	1.3398839e-06
26	0xb3fc4082	-1.1746398e-07
27	0xb4644954	-2.1260831e-07
28	0xb40058bb	-1.1953209e-07
29	0xb42eeaea	-1.6290474e-07
30	0xb4826672	-2.4288926e-07
31	0xb5165918	-5.6009003e-07
32	0xb4099789	-1.2814247e-07
33	0xb451c750	-1.9537151e-07
34	0xb4202adc	-1.4916753e-07
35	0xb441f862	-1.8064887e-07
36	0xb50e440e	-5.2998155e-07
37	0xb5458459	-7.358081e-07
38	0xb485ae31	-2.489992e-07
39	0x3368dd8b	5.42182e-08
40	0xb3250711	-3.8423483e-08
41	0xb51ded7e	-5.8832654e-07
42	0xb5c99b26	-1.5020821e-06
43	0x350e5938	5.302895e-07
44	0x352f281e	6.525096e-07
45	0x3613bfeb	2.2016418e-06
46	0x3543b7f7	7.2910865e-07
47	0x34bd39aa	3.524595e-07
48	0xb58c3280	-1.044551e-06
49	0xb3edf29e	-1.1080304e-07
50	0xb67c7b58	-3.7622722e-06
51	0x350c166c	5.218669e-07
52	0xb55d52f4	-8.244963e-07
53	0x3506a926	5.0165033e-07
54	0x33b453c4	8.39714e-08
55	0xb50be7d7	-5.2118907e-07
56	0x3493207d	2.7404522e-07
57	0x35058010	4.9732716e-07
58	0xb4323bc4	-1.6599284e-07
59	0xb6395d14	-2.7621327e-06
60	0xb46de788	-2.2156576e-07
61	0x341fc968	1.48813e-07
62	0x35b558ff	1.3511452e-06
63	0x32f7b234	2.8835622e-08
64	0xb4a1d972	-3.01468e-07
65	0xb3dd4863	-1.03042815e-07
66	0xb40d50fb	-1.3161109e-07
67	0x3481a9a3	2.415155e-07
68	0xb54e8bcc	-7.694441e-07
69	0x349e8e58	2.9533362e-07
70	0xb6229fcd	-2.4232897e-06
71	0xb4bb5a6a	-3.489725e-07
72	0xb5132bc6	-5.4825466e-07
73	0x36d0c104	6.221353e-06
74	0x343c2e99	1.7525817e-07
75	0x33f9b918	1.16286344e-07
76	0xb59e45e1	-1.1792255e-06
77	0x34fdf851	4.7305596e-07
78	0xb46c6065	-2.2014281e-07
79	0xb4cf4c4f	-3.8612276e-07
80	0xb4706556	-2.2388608e-07
81	0x34bc3546	3.505649e-07
82	0x338a9808	6.45378e-08
83	0x35acf27e	1.2885573e-06
84	0xb4430646	-1.8163072e-07
85	0x3488d61e	2.5487765e-07
86	0xb43f886f	-1.7837895e-07
87	0x330cbb38	3.2766565e-08
88	0x35b3ca9f	1.339551e-06
89	0xb4735e09	-2.2665348e-07
90	0x35cc39f5	1.5216052e-06
91	0xb2bdadc0	-2.2081508e-08
92	0x342fa568	1.635832e-07
93	0x3393e733	6.887276e-08
94	0x33841b91	6.151743e-08
95	0xb5535b06	-7.873608e-07
96	0x342d7f0c	1.61581e-07
97	0xb60ab0c6	-2.0666498e-06
98	0x356fb6e5	8.9300585e-07
99	0xb4a14e39	-3.00455e-07
100	0xb48dd368	-2.6417115e-07
101	0xb560fee7	-8.3817434e-07
102	0x330d249f	3.2862427e-08
103	0xb50f67ef	-5.3422895e-07
104	0xb6179981	-2.2590104e-06
105	0xb4edbd44	-4.42824e-07
106	0x34f8d668	4.63496e-07
107	0x337681e7	5.7394484e-08
108	0xb657b564	-3.214308e-06
109	0x35b13a35	1.3204468e-06
110	0xb42d8622	-1.6160678e-07
111	0xb4839acb	-2.4513278e-07
112	0xb3003712	-2.985241e-08
113	0x358d1853	1.0512398e-06
114	0xb5094392	-5.1134805e-07
115	0xb519825a	-5.718663e-07
116	0x34a3d9ec	3.0519675e-07
117	0x34beab73	3.5515004e-07
118	0xb4e9b28c	-4.3529542e-07
119	0xb486d491	-2.5114107e-07
120	0x348c4d9e	2.6133506e-07
121	0x35043003	4.92437e-07
122	0xb4908953	-2.6922007e-07
123	0xb4842720	-2.4615383e-07
124	0x34fe6381	4.7383585e-07
125	0xb2d26d65	-2.4496964e-08
126	0xb5dfebb0	-1.6683389e-06
127	0xb2a8a25e	-1.963161e-08

sequental.9.weight f4 [128]
0	0x3f6546b7	0.8956103
1	0x3f62b439	0.8855625
2	0x3f66c9f9	0.90151936
3	0x3f77fd0f	0.9687051
4	0x3f65736c	0.89629245
5	0x3f629721	0.88511854
6	0x3f64ada0	0.8932743
7	0x3f5b95e9	0.8577562
8	0x3f5d352e	0.8640927
9	0x3f642322	0.8911611
10	0x3f51819a	0.8183838
11	0x3f7212a2	0.9455968
12	0x3f6a3a1c	0.9149492
13	0x3f66f475	0.9021676
14	0x3f5e7bd9	0.86907727
15	0x3f6af291	0.91776377
16	0x3f6bb3d4	0.9207127
17	0x3f53babb	0.82706803
18	0x3f6acffb	0.91723603
19	0x3f670c72	0.90253365
20	0x3f61c48f	0.8819055
21	0x3f6a48a9	0.9151712
22	0x3f650949	0.89467293
23	0x3f68d83a	0.90954936
24	0x3f67961b	0.9046342
25	0x3f625981	0.8841782
26	0x3f64df49	0.89403206
27	0x3f65a04c	0.8969772
28	0x3f5f4282	0.8721086
29	0x3f5d4004	0.86425805
30	0x3f635a88	0.88810015
31	0x3f607238	0.87674284
32	0x3f601f27	0.87547535
33	0x3f69bfe8	0.9130845
34	0x3f597704	0.8494723
35	0x3f5220ff	0.820816
36	0x3f5ceb3f	0.8629646
37	0x3f5fa67a	0.873634
38	0x3f5b161a	0.855806
39	0x3f624c68	0.88397837
40	0x3f609d4b	0.8774001
41	0x3f60968b	0.8772971
42	0x3f5f42be	0.87211215
43	0x3f6ea570	0.9322119
44	0x3f681ce2	0.9066907
45	0x3f6af94e	0.9178666
46	0x3f6089ff	0.87710565
47	0x3f63d45e	0.8899592
48	0x3f6b59c6	0.9193386
49	0x3f55b882	0.8348466
50	0x3f6107e6	0.8790268
51	0x3f660183	0.89846057
52	0x3f65b785	0.89733154
53	0x3f66bd90	0.90133
54	0x3f66ffd4	0.9023411
55	0x3f5e37af	0.86803716
56	0x3f5e1172	0.8674537
57	0x3f642b45	0.89128524
58	0x3f56bef8	0.83885145
59	0x3f5827b9	0.8443561
60	0x3f5c9c5b	0.8617608
61	0x3f62ed23	0.8864309
62	0x3f59d399	0.850885
63	0x3f676efd	0.9040373
64	0x3f5c11b9	0.8596454
65	0x3f590172	0.8476783
66	0x3f5f3a09	0.8719793
67	0x3f643641	0.89145285
68	0x3f5f51b2	0.8723403
69	0x3f58473b	0.8448369
70	0x3f5a82ff	0.85356134
71	0x3f665260	0.89969444
72	0x3f5f8746	0.87315786
73	0x3f5effc3	0.8710901
74	0x3f67508f	0.903573
75	0x3f665f51	0.8998919
76	0x3f62c0f2	0.8857566
77	0x3f59dd1c	0.8510301
78	0x3f54b767	0.8309235
79	0x3f60f64f	0.8787584
80	0x3f5c5ff4	0.8608391
81	0x3f5860a2	0.8452245
82	0x3f6194b4	0.8811753
83	0x3f6c0e9f	0.9220981
84	0x3f64a40b	0.8931281
85	0x3f5d75ec	0.8650806
86	0x3f63c86a	0.8897768
87	0x3f559a4a	0.8343855
88	0x3f65a7af	0.8970899
89	0x3f5b6e70	0.8571539
90	0x3f79699b	0.97426766
91	0x3f697868	0.9119935
92	0x3f6af18c	0.9177482
93	0x3f608e91	0.8771754
94	0x3f6f72fc	0.9353483
95	0x3f5ed280	0.8703995
96	0x3f6c42ca	0.9228941
97	0x3f68bb3b	0.9091069
98	0x3f5bc9c8	0.8585477
99	0x3f62f970	0.8866186
100	0x3f60d529	0.87825257
101	0x3f5c77b5	0.8612016
102	0x3f66120c	0.8987129
103	0x3f6d5546	0.9270824
104	0x3f62b0f9	0.8855129
105	0x3f60bee7	0.87791294
106	0x3f5c1487	0.8596882
107	0x3f577c2c	0.84173846
108	0x3f5d0ea4	0.86350465
109	0x3f5f66f7	0.87266487
110	0x3f5ffde4	0.8749678
111	0x3f674e5d	0.9035395
112	0x3f6bc1fd	0.9209288
113	0x3f63443a	0.8877598
114	0x3f68c9b8	0.909328
115	0x3f617255	0.8806508
116	0x3f5c572a	0.860705
117	0x3f6eccb4	0.932811
118	0x3f66a7c2	0.9009973
119	0x3f5f208a	0.87159026
120	0x3f6121b0	0.8794203
121	0x3f62ce60	0.88596153
122	0x3f69096d	0.9103001
123	0x3f611062	0.87915623
124	0x3f5e691c	0.86879134
125	0x3f62d5bf	0.886074
126	0x3f6e3c77	0.9306101
127	0x3f6c2d73	0.9225685

sequental.9.bias f4 [128]
0	0xbc612e8a	-0.013744006
1	0xbb2644cf	-0.0025370603
2	0xbc1574da	-0.009122098
3	0xbbe98d3d	-0.0071274326
4	0xbc7955e5	-0.015218233
5	0xbb90e376	-0.0044216467
6	0xbb77c61d	-0.0037807294
7	0xbb3c6b99	-0.0028750657
8	0x3b2dc0e7	0.0026512684
9	0xbc95db96	-0.018293183
10	0xbc29d94a	-0.010366747
11	0xbc82f65e	-0.015986618
12	0xbade885b	-0.0016977893
13	0xbbee01ff	-0.0072634215
14	0xbc3f319e	-0.0116695445
15	0xbc41acc1	-0.011820973
16	0xbbf45c33	-0.00745728
17	0x3b0dd18a	0.0021639788
18	0xbc94ca31	-0.018162819
19	0xbd0ba8e6	-0.03409662
20	0xbc3123a4	-0.01081172
21	0xbcb365ef	-0.021899192
22	0xbd36b5bf	-0.04460692
23	0xbc0ffca4	-0.008788262
24	0xbc40bf5f	-0.011764376
25	0xbca7c797	-0.020480914
26	0xbcd8cf3e	-0.026466008
27	0x3997af35	0.00028931504
28	0xbc902bd7	-0.01759903
29	0xbca4a81f	-0.020099698
30	0xbbe5aac1	-0.007008881
31	0xbc99eaf2	-0.018788788
32	0xbc1e5fb4	-0.009666372
33	0xbcecfde0	-0.02892965
34	0xbc04c195	-0.008102794
35	0xbcd51b2e	-0.026013937
36	0x3a191712	0.00058399246
37	0xbc7ce8ed	-0.015436393
38	0xbc9ac407	-0.018892301
39	0xbb52e066	-0.003217721
40	0xbce15bc6	-0.027509581
41	0xbb370d0d	-0.0027931363
42	0xbcbe0b04	-0.023198612
43	0xbce820f3	-0.028336024
44	0xbb1b302b	-0.0023679833
45	0x3b43b888	0.0029864628
46	0xbbf9560d	-0.007609135
47	0xbc3ecb44	-0.011645142
48	0xbcbd123f	-0.02307999
49	0xbc448561	-0.011994691
50	0xbc620378	-0.013794772
51	0xbc77c402	-0.0151224155
52	0xbcc1c82d	-0.023655022
53	0xbc383de1	-0.011245222
54	0xbd018070	-0.03161663
55	0xbc4b7135	-0.012417127
56	0xbc706383	-0.014672163
57	0x39c63387	0.00037803894
58	0x3b1b037b	0.0023653198
59	0xbce48f0f	-0.027900247
60	0xbccff0bf	-0.025383351
61	0xbae16540	-0.0017196313
62	0x3a70f24c	0.00091913785
63	0xbbc70b13	-0.006074318
64	0xbcd5120c	-0.026009582
65	0xbcacdec5	-0.021102319
66	0x3cba4b3d	0.022740955
67	0xbbbea43e	-0.005817919
68	0xbc2b6f5e	-0.010463564
69	0xbb6ea9cd	-0.0036417127
70	0xbcfeb9de	-0.031094488
71	0xbd15078e	-0.036384158
72	0xbc7ed85f	-0.015554517
73	0xbc51a041	-0.012794555
74	0xbc329f90	-0.0109023005
75	0xbc056858	-0.008142553
76	0xbc483e46	-0.012221878
77	0xbc3eae20	-0.011638194
78	0xbc9912df	-0.018685756
79	0xbc86a9da	-0.016438413
80	0xbd0dd6b3	-0.03462858
81	0xbcb750a1	-0.022377314
82	0xbbb592d7	-0.0055411863
83	0xbc342f84	-0.010997657
84	0xba9e9fb0	-0.0012102034
85	0xbc84e731	-0.016223522
86	0xbc2b9027	-0.01047138
87	0xbcb6a741	-0.02229655
88	0xbc650322	-0.013977798
89	0xbba2d3a1	-0.004969076
90	0xbcb341c9	-0.021881955
91	0xbce25f1f	-0.027633248
92	0xbc16d4b9	-0.0092059905
93	0xbcad530f	-0.02115777
94	0xbc8db9ec	-0.017300569
95	0xbc85322e	-0.01625928
96	0xbcb6e22a	-0.02232464
97	0x3ab2ed85	0.0013651109
98	0xbc85e649	-0.01634516
99	0xbcbf85f7	-0.02337931
100	0xbd23c945	-0.039986867
101	0xbd272bbd	-0.040813196
102	0xbd1d781e	-0.03844463
103	0xbc6644aa	-0.014054457
104	0xbbe8fb78	-0.0071100555
105	0xbbcb08ed	-0.0061961324
106	0xbc25d896	-0.010122439
107	0xbc61e592	-0.013787644
108	0xbaf0cae7	-0.0018371016
109	0xbd06fa27	-0.032953408
110	0xbc684582	-0.014176728
111	0xbc88ba79	-0.01669048
112	0xbc9dd72d	-0.019267643
113	0xbcdab1ed	-0.02669617
114	0xbc36fb41	-0.011168302
115	0x3bad7c22	0.005294339
116	0xbc78b9ba	-0.015180999
117	0xbcc8b54a	-0.024500508
118	0xbc52ba7c	-0.012861844
119	0xbd33ef19	-0.043929193
120	0xbd0d7df7	-0.034543958
121	0xbcdc68d8	-0.026905462
122	0xbba364e6	-0.0049863933
123	0xbcb16331	-0.021653743
124	0xbc6e7153	-0.014553386
125	0xbc610053	-0.013732987
126	0x3cba4578	0.022738203
127	0xbc1ed6cd	-0.009694767

sequental.9.running_mean f4 [128]
0	0x3d1a0ca1	0.0376097
1	0xbe2ff871	-0.17184617
2	0xbe704811	-0.23464991
3	0x3cd7c68d	0.026339794
4	0xbed66075	-0.41870466
5	0x3edeb29e	0.4349565
6	0x3d466647	0.048437383
7	0xbe879fbf	-0.26489064
8	0xbe7b92c8	-0.24567711
9	0x3e8255ca	0.25456077
10	0xbe9e29c2	-0.30891234
11	0xbe95460b	-0.29155
12	0xbdc7289e	-0.09724544
13	0xbf17c7ae	-0.5928906
14	0x3e2df7c5	0.16989048
15	0xbe7793cd	-0.24177475
16	0xbe9b9ecd	-0.30394593
17	0xbec5900b	-0.3858646
18	0xbd739c07	-0.05947497
19	0xbea6a178	-0.32545066
20	0xbe67af11	-0.22625376
21	0xbe296536	-0.16542515
22	0xbec438a8	-0.38324475
23	0xbe09481a	-0.13406411
24	0xbe934dec	-0.28770387
25	0xbd653ea4	-0.055967942
26	0x3e29f281	0.16596414
27	0xbdc949f7	-0.09828561
28	0xbec6139b	-0.38686833
29	0xbea457c3	-0.32098207
30	0xbea00ace	-0.31258243
31	0x3e013b3a	0.1262025
32	0xbe89a847	-0.26886198
33	0xbe8aee53	-0.27134952
34	0xbe911bb9	-0.28341463
35	0xbf0a1a32	-0.5394622
36	0xbe125497	-0.14290081
37	0xbe6ab9bb	-0.22922413
38	0xbe90f136	-0.2830903
39	0xbc28c7f8	-0.0103015825
40	0xbf1a97d8	-0.60387945
41	0xbe4db22a	-0.20087495
42	0xbf29e127	-0.6635918
43	0xbefefb82	-0.4980126
44	0xbeddfdf7	-0.43357822
45	0xbebd3d2f	-0.36960742
46	0xbea22d09	-0.31674984
47	0xbf09cea8	-0.5383096
48	0x3e2c1c27	0.16807614
49	0x3e18c6d7	0.14919601
50	0xbe87ec29	-0.26547363
51	0xbf50920d	-0.81472856
52	0xbe82fb21	-0.2558222
53	0xbe615352	-0.2200444
54	0xbf525976	-0.82167757
55	0xbe571345	-0.21003444
56	0xbead156a	-0.338054
57	0xbe87fd16	-0.26560277
58	0xbf063690	-0.52427006
59	0xbf37013c	-0.7148626
60	0xbeef6db3	-0.4676338
61	0xbdafc4c9	-0.08582456
62	0xbe175bd8	-0.1478113
63	0x3ca3f190	0.020012647
64	0x3d4cf98f	0.050042685
65	0xbf04714b	-0.5173537
66	0x3d567e3e	0.052366488
67	0xbef49b61	-0.47774795
68	0xbdc4f734	-0.09617463
69	0xbe90a38b	-0.28249773
70	0xbeca3356	-0.3949229
71	0xbf0182e1	-0.5059033
72	0xbdf48a9c	-0.119405
73	0xbebec429	-0.37259033
74	0x3e09da17	0.13462101
75	0xbafd15ac	-0.0019308827
76	0xbea5d20f	-0.32386824
77	0xbe70a3d6	-0.23499998
78	0xbf245904	-0.6419833
79	0xbea6f27a	-0.3260687
80	0xbe9ff7ae	-0.31243652
81	0xbefdf5a1	-0.49601462
82	0xbe2840ec	-0.16431016
83	0xbc7d5c4b	-0.015463899
84	0xbefa4d3c	-0.4888705
85	0x3e854878	0.26031852
86	0x3e068e70	0.13140273
87	0xbe8e43d8	-0.27786136
88	0xbe4b26c2	-0.19839004
89	0xbee431cb	-0.4456924
90	0xbd973857	-0.07383793
91	0xbce9dce9	-0.028547721
92	0x3c6b786d	0.014371973
93	0xbf1e29a5	-0.61782295
94	0xbe8a2d07	-0.26987478
95	0xbe3d2a6e	-0.18473217
96	0xbdb6fe25	-0.08935193
97	0xbf33ed9b	-0.7028443
98	0xbf02015f	-0.5078334
99	0xbe8b0989	-0.27155712
100	0xbe4139bb	-0.18869679
101	0xbdafb1ba	-0.085788205
102	0xbe7ee29c	-0.24891132
103	0x3b39dd43	0.0028360642
104	0xbe68f5fa	-0.22750083
105	0xbf2ea090	-0.6821375
106	0xbecf48f3	-0.40485343
107	0xbe688c37	-0.22709738
108	0xbf079d0d	-0.52974015
109	0xbeaf2d90	-0.3421445
110	0xbf26c15d	-0.651388
111	0xbe916a06	-0.28401202
112	0xbe89398f	-0.26801726
113	0xbe95269e	-0.29131025
114	0xbeb44de9	-0.3521569
115	0xbdf816af	-0.121137016
116	0x3e8eb472	0.27872044
117	0x3ea36782	0.31914908
118	0xbecfc777	-0.40581867
119	0x3e61caa9	0.22049965
120	0xbdcaabd4	-0.09896055
121	0xbec1a013	-0.3781744
122	0xbe6e6178	-0.23279369
123	0x3d5fe609	0.054662738
124	0x3d0038d4	0.031304196
125	0xbe6437f2	-0.22286966
126	0x3d3c3434	0.045948222
127	0xbec994c5	-0.39371315

sequental.9.running_var f4 [128]
0	0x3e864234	0.26222384
1	0x3e44f516	0.19234118
2	0x3e468d07	0.19389735
3	0x3e146d02	0.14494708
4	0x3df8847e	0.12134646
5	0x3e87f553	0.26554355
6	0x3e7d0cd7	0.2471193
7	0x3e9f6134	0.31128848
8	0x3e143f90	0.14477372
9	0x3e660fb0	0.22466922
10	0x3e92ce64	0.2867309
11	0x3e279706	0.16366205
12	0x3e091f05	0.1339074
13	0x3e802da3	0.25034818
14	0x3e2e5eed	0.17028399
15	0x3e21686a	0.15762487
16	0x3e96c702	0.29448706
17	0x3e88cafd	0.26717368
18	0x3e574195	0.21021111
19	0x3e3ec7bb	0.18630879
20	0x3de62cd8	0.11239022
21	0x3e368cda	0.17827168
22	0x3e845183	0.25843439
23	0x3e32118c	0.17389506
24	0x3e31e457	0.17372261
25	0x3e555ecc	0.20836943
26	0x3e2e3953	0.17014055
27	0x3e6c4774	0.23074132
28	0x3e86e9d3	0.2635027
29	0x3e359b5d	0.17735048
30	0x3dfd7122	0.12375094
31	0x3e56a15b	0.2095999
32	0x3e889109	0.26673153
33	0x3ea0ed24	0.31430924
34	0x3e6246e9	0.22097363
35	0x3e928672	0.286182
36	0x3e5f8902	0.21829608
37	0x3e1725b1	0.14760472
38	0x3e3fc53f	0.18727587
39	0x3e19aede	0.15008113
40	0x3e770192	0.24121693
41	0x3e47fde0	0.1953044
42	0x3e97a152	0.29615265
43	0x3e18690c	0.14883822
44	0x3e6c0594	0.23049003
45	0x3e1c3e94	0.15258247
46	0x3e6951ef	0.22785161
47	0x3e59a1fb	0.21253197
48	0x3e88dd90	0.2673154
49	0x3e61b08a	0.2204
50	0x3e0cd1ff	0.13751982
51	0x3e476d3a	0.1947526
52	0x3e3431bb	0.17597096
53	0x3dfeb3b0	0.124366164
54	0x3e723862	0.23654321
55	0x3e4ca8c8	0.1998626
56	0x3e4f687c	0.20254701
57	0x3e1bd4ce	0.15217897
58	0x3ec70142	0.38868147
59	0x3e1838ad	0.1486537
60	0x3ebbfdd4	0.36717093
61	0x3df4316c	0.11923489
62	0x3e17b70b	0.14815919
63	0x3e156cf3	0.14592342
64	0x3e8eaa82	0.27864462
65	0x3e891887	0.26776525
66	0x3e566016	0.20935091
67	0x3e25a4b7	0.16176115
68	0x3e46b623	0.19405417
69	0x3e8b878a	0.27251846
70	0x3e64c5e4	0.22341114
71	0x3e19fa91	0.1503699
72	0x3e5ddd74	0.21666509
73	0x3e36c950	0.17850232
74	0x3e441e2c	0.19152135
75	0x3e45a230	0.19300151
76	0x3e5327b9	0.20620622
77	0x3e8923dd	0.26785174
78	0x3e7f3e18	0.2492603
79	0x3e391314	0.18073684
80	0x3e90a8ad	0.2825369
81	0x3e83ebea	0.25765926
82	0x3e24ec56	0.1610578
83	0x3e2c12a4	0.16803986
84	0x3e356664	0.1771484
85	0x3e4737ef	0.1945493
86	0x3e80db8d	0.25167504
87	0x3e28e10e	0.16492102
88	0x3e804ba9	0.25057724
89	0x3e2a3ff4	0.16625959
90	0x3deda240	0.11603212
91	0x3e34f0c3	0.17669968
92	0x3e28d11e	0.16486022
93	0x3e4e3b7e	0.20139882
94	0x3e38be34	0.18041307
95	0x3e47dedc	0.19518608
96	0x3de6022a	0.112308815
97	0x3e48517f	0.19562338
98	0x3e9bb52f	0.3041167
99	0x3e70cccf	0.23515628
100	0x3e28c3a8	0.16480887
101	0x3e61b8ae	0.22043106
102	0x3e34431e	0.17603728
103	0x3e2d893b	0.1694688
104	0x3e3fce3c	0.18731016
105	0x3e53e83b	0.20694058
106	0x3e0bc8f9	0.13650884
107	0x3e52dd23	0.2059217
108	0x3e3dfd76	0.18553719
109	0x3e608fcf	0.21929859
110	0x3e5ff8d8	0.2187227
111	0x3e82258e	0.25419277
112	0x3dfe12ca	0.124059275
113	0x3e2497b9	0.16073503
114	0x3df92388	0.1216498
115	0x3e518e91	0.20464541
116	0x3e92f67f	0.28703687
117	0x3e2e1f3e	0.17004105
118	0x3e4b818d	0.19873638
119	0x3e709671	0.23494889
120	0x3e88e18f	0.26734588
121	0x3e227817	0.15866123
122	0x3def5ee4	0.11688021
123	0x3e647bd9	0.22312869
124	0x3e2005f4	0.15627271
125	0x3e3e77ae	0.18600342
126	0x3e1ae7db	0.15127508
127	0x3e174beb	0.14775054
