02 Многослойная нейронная сеть/best_model.pth (torch, 982498 bytes, 16 tensors)

sequental.1.weight f4 [256, 784]
6.0549748e-05 0.0004756781 0.0017333728 0.0021342812 -0.00086137454 -0.004540805 -0.0015260197 -0.0058770897
0.0047206176 0.0009122481 -0.001595239 -0.010507375 -0.011743123 -0.0052215713 0.023417821 -0.008486981
0.007463249 -0.01342061 0.0039900295 -0.0019034728 -0.0018203221 0.0074892887 -0.0010504159 -0.0076747495
-0.0071158274 -0.00371427 -0.0027184861 0.0039202236 0.0006664597 -0.00018015695 0.01150186 0.010898267
-0.004781493 -0.0041029127 0.014309766 -0.02234898 -0.016260969 0.011421378 -0.0013154647 -0.0041996636
-0.0187323 -0.001392009 -0.011147823 0.022588875 -0.005887118 0.0061742184 -0.030157685 -0.0013926858
-0.018352056 -0.0074343667 0.0102890255 0.013157326 -0.008176093 -0.0038002727 -0.0075620697 0.0036356316
-0.00037375465 -0.0021238462 0.006290256 0.014505251 0.0070388624 0.0060293507 -0.019596875 -0.017419646
0.0064042076 0.0137308845 0.00021712329 0.0060284464 0.014517961 0.009605074 0.0058634332 -0.01217962
0.012067911 0.0030375137 0.00719732 0.003870402 -0.0141029535 -0.0057589025 -0.01148219 0.0058057564
0.019275626 -0.0028142103 0.0007306636 0.0058693383 -0.003537883 0.0036917268 0.013021202 0.012741294
0.012900285 0.017800884 -0.010448651 -0.0011238086 0.008126292 0.01219985 -0.015030592 -0.010701226
-0.02494743 0.015147865 0.0104712965 0.011567102 0.017805234 -0.015501902 -0.012676846 0.01320648
-0.0050621037 0.0048294105 0.0028614725 -0.0073569296 0.008954664 -0.005382087 -0.0025663676 -0.0021096847
-0.002269961 0.0094709145 0.0120835975 0.0031589482 0.020568864 0.0059809713 0.0099281585 0.016608322
0.0010773195 -0.034491394 -0.01330296 -0.023524692 0.00878934 -0.03570173 -0.035790965 0.006981572
-0.016096001 -0.009217072 -0.0071208384 -0.024687048 -0.024807986 0.0008981381 -0.019810587 0.007715926
0.008887867 -0.008148928 0.013161916 0.0005152787 -0.0025094356 0.0030270915 0.01467441 0.0048536877
0.01596125 0.013516021 -0.005749651 -0.02308748 -0.03142162 -0.034642827 -0.0034929954 0.000593708
-0.022425856 -0.0051980605 0.0030192558 0.009451533 0.006078546 -0.025024539 -0.005113428 0.0010216307
-0.006879551 0.0072947014 0.02891371 0.020876082 0.007057984 0.012794375 -0.014451885 0.0027839693
-0.0017086841 -0.0005528869 0.011900789 -0.019364487 -0.020646233 0.009500282 0.010053636 -0.005305376
-0.01621746 0.00040919197 -0.030603277 -0.0076173535 -0.008409661 -0.02134135 0.00045787054 -0.024439743
-0.016237319 -0.00046712352 0.011300376 -0.00056648575 -0.012748002 0.013009687 -0.010733477 0.023346405
-0.015961062 0.0020460899 -0.01145951 -0.0012596076 -0.00049843447 0.007933486 0.0033991851 0.01395786
0.0028809288 0.017399807 -0.0020080633 -0.0033301536 -0.017618435 -0.017438868 0.0053046253 -0.025529627
-0.02205431 -0.006273563 -0.027302196 0.008985575 0.011644533 -0.025924854 -0.007464627 0.0011999694
0.011864083 0.022895204 0.024030497 -0.00409651 -0.008289826 -0.0041833804 -0.0019698646 -0.005180255
0.0010895128 0.008999869 -0.01562714 -0.011384719 -0.011458579 -0.004188484 0.020783965 0.007513668
-0.009050948 -0.033959728 -0.035720516 0.008532075 0.010872449 0.0152803585 -0.024817351 -0.013379688
0.015624996 0.0003100414 -0.024269158 0.0031401357 0.014061262 -0.004229559 0.02406005 0.023984239
-0.02670088 0.006203995 0.0034267711 -0.00341551 0.010906845 0.0072114654 0.0075112367 0.023478752
00000000: ccf6 7d38 6f64 f939 5732 e33a 4cdf 0b3b
00000010: decd 61ba 08cb 94bb b904 c8ba 9a94 c0bb
00000020: 69af 9a3b ef23 6f3a 5717 d1ba 2027 2cbc
00000030: 3a66 40bc b719 abbb bbd6 bf3c fa0c 0bbc
00000040: 458e f43b 1ee2 5bbc cbbe 823b f37d f9ba
00000050: e097 eeba b568 f53b 1cae 89ba 777c fbbb
00000060: e32b e9bb 1c6b 73bb a128 32bb 3875 803b
00000070: 5ab5 2e3a 83e8 3cb9 4c72 3c3c a58e 323c
00000080: 12ae 9cbb ba71 86bb 8273 6a3c 3515 b7bc
00000090: b935 85bc bb20 3b3c ac6b acba 559d 89bb
000000a0: 7b74 99bc 1274 b6ba 5ca5 36bc 4e0c b93c
000000b0: bae8 c0bb 1951 ca3b 400d f7bc c88a b6ba
000000c0: 0d57 96bc fd9b f3bb 4d93 283c d391 573c
000000d0: 05f5 05bc ff0d 79bb 3dcb f7bb c743 6e3b
000000e0: 80f4 c3b9 3a30 0bbb 7e1e ce3b 6fa7 6d3c
000000f0: 42a6 e63b dc91 c53b a089 a0bc a5b3 8ebc
00000100: 63da d13b 81f7 603c 97ab 6339 468a c53b
00000110: bedc 6d3c 9a5e 1d3c 0b22 c03b 078d 47bc
00000120: 7db8 453c 0611 473b 7fd7 eb3b 92a6 7d3b
00000130: 1310 67bc 2db5 bcbb cc1f 3cbc 373e be3b
00000140: ebe7 9d3c 9d6e 38bb 018a 3f3a 9453 c03b
00000150: d4db 67bb e6f0 713b e156 553c dcc0 503c
00000160: b85b 533c 29d3 913c d230 2bbc c24c 93ba
00000170: 2424 053c e1e1 473c df42 76bc 3254 2fbc
00000180: 8d5e ccbc c02e 783c cd8f 2b3c f183 3d3c
00000190: 48dc 913c b1fb 7dbc 8cb2 4fbc fe5f 583c
000001a0: 01e0 a5bb 0840 9e3b 8b87 3b3b 6612 f1bb
000001b0: 95b6 123c 385c b0bb 8130 28bb a342 0abb
000001c0: a0c3 14bb e52b 1b3c 48fa 453c 5b06 4f3b
000001d0: 0980 a83c 06fc c33b b7a9 223c 2d0e 883c
000001e0: d834 8d3a d946 0dbd a9f4 59bc dbb6 c0bc
000001f0: 2a01 103c fa3b 12bd 8c99 12bd acc5 e43b
00000200: c3db 83bc 3403 17bc ec55 e9bb 7e3c cabc
00000210: 1e3a cbbc 0771 6b3a d049 a2bc e1d5 fc3b
00000220: 6b9e 113c 1583 05bc 14a5 573c c513 073a
00000230: 5875 24bb 2b62 463b f06c 703c af0b 9f3b
00000240: 2bc1 823c 4d72 5d3c 9267 bcbb f421 bdbc
00000250: f5b3 00bd a3e5 0dbd bdea 64bb 12a3 1b3a
00000260: 6eb6 b7bc 7e54 aabb b5de 453b 9ada 1a3c
00000270: 8a2e c73b 4300 cdbc 8b8e a7bb 3de8 853a
00000280: db6d e1bb 6408 ef3b 72dc ec3c 5104 ab3c
00000290: a946 e73b 809f 513c 99c7 6cbc 4173 363b
000002a0: edf5 dfba 9def 10ba 87fb 423c 46a2 9ebc
000002b0: 4a22 a9bc 12a7 1b3c 01b8 243c b8d8 adbb
000002c0: 7bda 84bc d188 d639 b9b3 fabc fe9a f9bb
000002d0: adc8 09bc 0ed4 aebc 580e f039 db35 c8bc
000002e0: 2004 85bc 42e8 f4b9 3625 393c 3780 14ba
000002f0: ffdc 50bc 9526 553c 77db 2fbc f640 bf3c
00000300: c6c0 82bc b117 063b abc0 3bbc 6b19 a5ba
00000310: 5fa9 02ba 74fb 013c ddc4 5e3b 82af 643c
00000320: f7cd 3c3b 0a8a 8e3c b699 03bb b53e 5abb
00000330: 8954 90bc f5db 8ebc 6cd2 ad3b 8223 d1bc
00000340: 3eab b4bc 7692 cdbb dba8 dfbc 3c38 133c
00000350: b6c8 3e3c 5c60 d4bc d499 f4bb 4b48 9d3a
00000360: 9261 423c b98e bb3c 9bdb c43c 043c 86bb
00000370: 0dd2 07bc bd14 89bb d818 01bb 21bf a9bb
00000380: fccd 8e3a 3074 133c 7d04 80bc f986 3abc
00000390: c4bc 3bbc 8d3f 89bb 2243 aa3c 3735 f63b
000003a0: 6d4a 14bc 5b19 0bbd ad4f 12bd 1eca 0b3c
000003b0: 5b22 323c 785a 7a3c c24d cbbc 7b36 5bbc
000003c0: fcff 7f3c 0d8d a239 1dd0 c6bc bcca 4d3b
000003d0: 3561 663c 1d98 8abb 9519 c53c 987a c43c
000003e0: cebb dabc e24a cb3b ae93 603b c0d6 5fbb
000003f0: a0b2 323c 284e ec3b d220 f63b 8356 c03c

sequental.1.bias f4 [256]
2.1368128e-06 1.05523085e-07 7.907976e-07 4.0043415e-07 4.6007253e-07 5.565329e-06 -2.6232424e-06 -2.4282556e-07
-3.1603236e-07 -3.8460917e-06 6.9685406e-08 5.58007e-07 1.8598516e-07 9.568014e-08 6.158747e-06 -5.039693e-07
-3.748591e-07 -1.3203163e-07 1.4323141e-06 -7.887619e-07 3.4871127e-06 1.0398887e-06 6.29622e-07 1.3756588e-07
-9.0682455e-08 -3.852264e-07 1.541238e-07 2.2673835e-06 5.089594e-08 -1.2998677e-07 3.1072435e-07 -4.5397164e-06
2.8669588e-06 2.727158e-08 -2.256726e-07 -4.5608388e-07 -2.2480856e-07 2.4276517e-07 1.1322244e-06 -1.1399284e-07
1.1487132e-06 -8.563027e-06 1.2907518e-06 6.5542304e-07 -5.720875e-07 -1.2094327e-07 -1.336816e-06 -1.0262213e-06
-6.989128e-07 -3.1072963e-07 -1.0805903e-05 -1.4065786e-07 -2.1678431e-06 -2.898756e-07 2.4283435e-07 -1.1770936e-07
-9.439676e-10 -4.2734536e-07 9.535644e-07 3.4616907e-08 -1.4844983e-07 3.0243145e-06 -1.0272745e-06 4.3687317e-07
1.0954822e-06 -1.1080422e-06 -2.8371926e-07 1.3412943e-08 9.286337e-07 -4.3514424e-07 1.5505657e-06 6.3168244e-07
3.9766047e-07 2.8346957e-07 -5.144611e-07 -1.2085598e-06 4.4474473e-07 1.5003832e-07 -4.451944e-07 -1.854952e-07
2.1471347e-07 3.7000348e-07 -2.3857865e-06 1.5965068e-07 -9.479092e-07 5.1395483e-07 -2.3922717e-06 -6.1534315e-08
-4.85136e-07 1.6126642e-06 -8.2411594e-07 3.6279246e-08 -1.2362244e-06 -9.781403e-07 -2.7913092e-07 3.6365697e-07
-8.79541e-07 4.5840234e-06 -4.0944053e-07 -4.0674377e-07 2.0067957e-06 6.0583153e-07 -1.6802859e-06 -7.133993e-07
1.5109833e-06 1.0192955e-06 1.1962968e-06 2.9821516e-07 -3.0170534e-07 -1.7182536e-07 1.9230808e-06 3.226031e-07
1.1580751e-06 -9.888159e-07 4.149832e-07 -7.484533e-08 1.0333108e-07 -9.610935e-07 1.372517e-08 -4.4674348e-07
1.2739104e-08 -2.5653122e-08 -1.0021404e-06 1.9660388e-07 8.4403666e-07 -2.1030473e-07 1.0203939e-06 3.8680514e-07
-1.7840961e-06 -1.7838116e-07 -1.281061e-06 3.9701868e-07 -4.387455e-07 -1.4835472e-07 -2.9716336e-06 4.500805e-07
-1.916071e-07 5.7359074e-07 -3.1020028e-07 -6.3178845e-07 -1.7861768e-07 -6.2021263e-07 -2.7022384e-06 -2.6921742e-07
-1.8759991e-07 7.277262e-07 -1.1938181e-06 1.2208425e-06 1.3426032e-07 1.2589284e-06 1.6705734e-07 2.8878722e-07
9.090119e-07 1.1980724e-06 -1.1545632e-06 2.4455204e-07 6.252727e-07 -3.109372e-07 5.5680044e-07 1.4324655e-07
2.2783147e-06 6.118792e-08 -1.5492245e-06 -1.5921393e-06 9.628976e-07 -1.8805099e-06 -1.917054e-06 -3.823909e-07
-1.7070266e-07 -1.2230358e-07 -2.6045802e-07 5.896328e-06 5.1898957e-07 -4.3540185e-06 -9.5250243e-07 1.2273839e-06
2.6536418e-06 1.2493007e-07 3.0973982e-08 -4.2828124e-06 2.986539e-06 3.265442e-07 -9.599435e-07 3.0839047e-07
-7.6905377e-07 4.893726e-07 -1.3956733e-06 1.4478896e-06 3.1875531e-06 3.4991056e-06 -1.328804e-06 1.1604139e-07
5.1667115e-07 8.605988e-07 -1.1384898e-07 6.974065e-07 -4.349222e-06 -4.0161115e-07 3.4940488e-06 5.016689e-07
-3.767252e-06 1.6209383e-06 3.33081e-07 1.6468013e-07 1.01179566e-07 -8.0437434e-07 6.2633662e-06 -3.984046e-07
-1.2388195e-07 2.0314381e-07 7.198501e-08 2.306036e-06 -2.56551e-07 2.083107e-06 1.7422766e-06 1.7488891e-07
1.7395292e-06 3.7507758e-07 -2.3252235e-06 -1.0077187e-07 -3.0999593e-07 -3.931264e-06 1.2550267e-06 1.6701387e-07
4.6470885e-07 1.5748399e-06 6.910873e-07 -9.38826e-08 5.1960694e-07 2.4339672e-06 -1.9793968e-07 2.1186729e-07
1.5700627e-07 -6.715881e-07 -5.181469e-07 1.4949752e-06 -1.2123329e-06 -4.72531e-07 1.5461347e-06 1.0623847e-06
-3.2848578e-07 -1.7880523e-06 7.5040003e-07 -1.9377815e-06 1.4018113e-07 1.4679378e-07 3.3596385e-07 -1.2998172e-06
-2.54587e-06 -2.1306937e-07 -1.8246077e-08 5.667378e-07 1.1493992e-06 -1.7659904e-06 9.443588e-07 7.076394e-07
00000000: 2a66 0f36 ee9b e233 3347 5435 40fb d634
00000010: e3ff f634 d0bd ba36 f60a 30b6 b15d 82b4
00000020: 28ab a9b4 ad0d 81b6 f5a5 9533 f3c9 1535
00000030: 36b3 4734 b778 cd33 3ca7 ce36 8248 07b5
00000040: 3e40 c9b4 94c4 0db4 f03d c035 4ebb 53b5
00000050: 2404 6a36 4e92 8b35 4b03 2935 d2b5 1334
00000060: 35bd c2b3 1dd1 ceb4 3a7d 2534 5a29 1836
00000070: ae98 5a33 7e92 0bb4 a1d1 a634 de53 98b6
00000080: fa65 4036 d742 ea32 6950 72b4 b1db f4b4
00000090: e862 71b4 6455 8234 eff6 9735 3acc f4b3
000000a0: 7c2d 9a35 eca9 0fb7 e53d ad35 54f0 2f35
000000b0: 8e91 19b5 a2dc 01b4 a66c b3b5 b2bc 89b5
000000c0: ec9c 3bb5 5bd2 a6b4 004b 35b7 bd07 17b4
000000d0: 437b 11b6 33a0 9bb4 e65e 8234 68c7 fcb3
000000e0: e8bc 81b0 e66d e5b4 72f8 7f35 b1ad 1433
000000f0: 9465 1fb4 54f5 4a36 e2e0 89b5 648b ea34
00000100: 7b08 9335 0ab8 94b5 1452 98b4 bf6e 6632
00000110: 3947 7935 c59d e9b4 081d d035 e390 2935
00000120: 0a7e d534 c32f 9834 7f19 0ab5 cc35 a2b5
00000130: 40c5 ee34 381a 2134 0d03 efb4 882c 47b4
00000140: fd8b 6634 e4a4 c634 801b 20b6 726c 2b34
00000150: d373 7eb5 b5f6 0935 ea8a 20b6 d924 84b3
00000160: 4b3a 02b5 b872 d835 d138 5db5 74d1 1b33
00000170: 59ec a5b5 a548 83b5 76db 95b4 a23c c334
00000180: 9919 6cb5 76d0 9936 14d1 dbb4 705e dab4
00000190: 7dac 0636 6da0 2235 2f86 e1b5 6d80 3fb5
000001a0: fecc ca35 bace 8835 7290 a035 611a a034
000001b0: 11fa a1b4 ff7e 38b4 470e 0136 3c32 ad34
000001c0: 286f 9b35 75b7 84b5 dbca de34 a8ba a0b3
000001d0: dde6 dd33 ecfe 80b5 f0cb 6b32 f5d7 efb4
000001e0: 2cdb 5a32 d05b dcb2 4881 86b5 101a 5334
000001f0: c291 6235 20d0 61b4 78f4 8835 18aa cf34
00000200: 1375 efb5 0a89 3fb4 ecf0 abb5 d525 d534
00000210: b98c ebb4 6f4b 1fb4 476c 47b6 98a2 f134
00000220: 8fbc 4db4 dbf8 1935 9a89 a6b4 2c98 29b5
00000230: 0eca 3fb4 b07c 26b5 1a58 35b6 f688 90b4
00000240: 126f 49b4 f758 4335 473b a0b5 d4db a335
00000250: 3229 1034 73f8 a835 5f60 3334 9d0a 9b34
00000260: d202 7435 74cd a035 7df6 9ab5 fa4a 8334
00000270: 6ad8 2735 e2ee a6b4 0977 1535 50cf 1934
00000280: 26e5 1836 6a66 8333 f3ee cfb5 7db1 d5b5
00000290: e93c 8135 d465 fcb5 bda6 00b6 684b cdb4
000002a0: 644a 37b4 8d52 03b4 14d5 8bb4 12d9 c536
000002b0: b150 0b35 bc18 92b6 78af 7fb5 97bc a435
000002c0: 3815 3236 8424 0634 4108 0533 14b5 8fb6
000002d0: 596c 4836 e54f af34 68d7 80b5 dd90 a534
000002e0: f970 4eb5 6e5d 0335 f852 bbb5 1c55 c235
000002f0: bfe9 5536 2dd2 6a36 5c59 b2b5 6e32 f933
00000300: 5fb1 0a35 e603 6735 237d f4b3 6935 3b35
00000310: 88ef 91b6 049d d7b4 4d7b 6a36 6daa 0635
00000320: e6d0 7cb6 048f d935 4ed2 b234 eed2 3034
00000330: 0e48 d933 2fec 57b5 e829 d236 50e4 d5b4
00000340: 6904 05b4 bf1f 5a34 2e96 9a33 66c1 1a36
00000350: 1abc 89b4 81cb 0b36 2bd8 e935 19c9 3b34
00000360: c579 e935 455e c934 090b 1cb6 ec67 d8b3
00000370: 846d a6b4 4de9 83b6 6472 a835 6c54 3334
00000380: 197d f934 165f d335 2883 3935 819c c9b3
00000390: 1e7b 0b35 3d57 2336 3f89 54b4 a37d 6334
000003a0: 8e95 2834 2f47 34b5 c916 0bb5 f5a6 c835
000003b0: 71b7 a2b5 2bb0 fdb4 c984 cf35 4397 8e35
000003c0: be5a b0b4 02fd efb5 196f 4935 d50a 02b6
000003d0: b284 1634 5e9e 1d34 855e b434 6175 aeb5
000003e0: b7d9 2ab6 10c8 64b4 8cbb 9cb2 ed21 1835
000003f0: 0e45 9a35 f806 edb5 d87f 7d35 9cf4 3d35

sequental.2.weight f4 [256]
0.76140666 0.7807173 0.78574574 0.7899634 0.79716814 0.78148544 0.7870776 0.7687437
0.81687737 0.8139071 0.7825842 0.78603643 0.79841536 0.7622375 0.7793441 0.7661761
0.78293806 0.7430229 0.7844899 0.7712989 0.7860719 0.75921005 0.7799711 0.8078614
0.89340407 0.81840795 0.8516902 0.78978264 0.73142403 0.7712922 0.7680427 0.8429829
0.7893305 0.8429235 0.7490178 0.80457795 0.83368456 0.78299314 0.7819155 0.7940855
0.7784488 0.89020663 0.8115703 0.76004624 0.7773012 0.77385664 0.8198593 0.7916171
0.81419986 0.75902236 0.8117568 0.76111007 0.8538384 0.7813598 0.79239357 0.80989504
0.8089327 0.8263868 0.8221167 0.8055379 0.81734836 0.79486257 0.7782645 0.7840142
0.8042839 0.76724774 0.78865093 0.8110113 0.78256446 0.7663035 0.8730379 0.7970855
0.77716166 0.79851454 0.80447257 0.86350137 0.80022115 0.8143226 0.75727475 0.8079437
0.800015 0.82122165 0.83190215 0.79836965 0.7867578 0.77517927 0.7819202 0.75051945
0.75621486 0.8146822 0.78349066 0.7697935 0.8062301 0.8280632 0.7967511 0.7785632
0.80268174 0.85828185 0.77557427 0.82884735 0.7851506 0.8222639 0.8221758 0.8196532
0.7746755 0.7710053 0.77643174 0.777335 0.79440504 0.8018828 0.7885635 0.77280575
0.82208186 0.83510166 0.7723009 0.7805282 0.7840429 0.7987146 0.8033895 0.78922796
0.7759669 0.7826966 0.83328354 0.81091154 0.80799323 0.80984944 0.79972136 0.779319
0.7757795 0.7860029 0.8257017 0.7573277 0.80527323 0.76954716 0.8651041 0.81613207
0.80934054 0.78345585 0.7589501 0.79094785 0.7806822 0.7384377 0.82569957 0.773469
0.78312874 0.79482377 0.79019505 0.834315 0.7606352 0.7664015 0.84002477 0.7939604
0.8206282 0.84901685 0.85725015 0.7516449 0.8322412 0.7860278 0.76874804 0.794081
0.8184337 0.74539477 0.798163 0.77187175 0.8046488 0.8084873 0.79739255 0.76629364
0.7726479 0.76887953 0.7841707 0.8271837 0.75850916 0.7512251 0.7892367 0.7895481
0.8123337 0.7918398 0.791988 0.81535816 0.80988115 0.7893229 0.766914 0.77603424
0.84290695 0.74219245 0.8344092 0.8431569 0.7967024 0.77282196 0.7849381 0.76892823
0.82558924 0.82350796 0.7711456 0.7724963 0.78860784 0.78219837 0.8136564 0.82107687
0.86138034 0.79573065 0.79456425 0.80214614 0.7934666 0.74537903 0.81424016 0.7987261
0.7603548 0.77600324 0.81336707 0.8420453 0.79824525 0.75996125 0.799034 0.7712931
0.7623242 0.7883594 0.74717915 0.78319216 0.79636514 0.8179372 0.79948 0.7624086
0.80177927 0.77925295 0.7875227 0.77087647 0.8337492 0.7768239 0.8136588 0.7662573
0.82149696 0.7614469 0.7616502 0.81981146 0.8230357 0.8095247 0.79323775 0.8080712
0.7697837 0.8068098 0.8060174 0.7620957 0.7762519 0.8073517 0.80999696 0.7619221
0.7741932 0.7879175 0.7768845 0.78895515 0.7828513 0.7661985 0.7432191 0.77161443
00000000: 8ceb 423f 17dd 473f a226 493f 0b3b 4a3f
00000010: 3613 4c3f 6e0f 483f eb7d 493f 63cc 443f
00000020: e01e 513f 375c 503f 7057 483f af39 493f
00000030: f364 4c3f ff21 433f 1883 473f 1e24 443f
00000040: a16e 483f c036 3e3f 55d4 483f d873 453f
00000050: 023c 493f 975b 423f 30ac 473f 01d0 4e3f
00000060: 21b6 643f 2f83 513f 5e08 5a3f 322f 4a3f
00000070: 9b3e 3b3f 6873 453f 729e 443f bacd 573f
00000080: 9011 4a3f d6c9 573f a1bf 3f3f d2f8 4d3f
00000090: 5a6c 553f 3d72 483f 9d2b 483f 3049 4b3f
000000a0: 6c48 473f 95e4 633f 12c3 4f3f 6492 423f
000000b0: 36fd 463f 781b 463f 4de2 513f 6ba7 4a3f
000000c0: 676f 503f 4a4f 423f 4bcf 4f3f 1cd8 423f
000000d0: 2795 5a3f 3207 483f 4eda 4a3f 4855 4f3f
000000e0: 3716 4f3f 168e 533f 3d76 523f bb37 4e3f
000000f0: be3d 513f 1d7c 4b3f 583c 473f 28b5 483f
00000100: 8de5 4d3f 596a 443f 07e5 493f 709e 4f3f
00000110: 2556 483f 772c 443f 697f 5f3f cc0d 4c3f
00000120: 11f4 463f 736b 4c3f eaf1 4d3f 6d0e 5d3f
00000130: 4bdb 4c3f 7277 503f c2dc 413f 66d5 4e3f
00000140: c8cd 4c3f 953b 523f 8af7 543f f461 4c3f
00000150: f668 493f 2672 463f ec2b 483f 0b22 403f
00000160: 4c97 413f 038f 503f d892 483f 3011 453f
00000170: 1965 4e3f f3fb 533f e1f7 4b3f eb4f 473f
00000180: 8d7c 4d3f 5cb8 5b3f 098c 463f 572f 543f
00000190: a1ff 483f e37f 523f 1d7a 523f cbd4 513f
000001a0: 2251 463f 9a60 453f 3bc4 463f 6dff 463f
000001b0: 215e 4b3f 3148 4d3f 4cdf 493f 99d6 453f
000001c0: f573 523f 39c9 553f 83b5 453f b2d0 473f
000001d0: 09b7 483f 8f78 4c3f efaa 4d3f d80a 4a3f
000001e0: c4a5 463f ce5e 483f 1252 553f e697 4f3f
000001f0: a5d8 4e3f 4b52 4f3f 8aba 4c3f 7381 473f
00000200: 7c99 463f 7c37 493f 3061 533f 3ae0 413f
00000210: 6326 4e3f 0b01 453f 7677 5d3f 08ee 503f
00000220: f130 4f3f 9090 483f 8e4a 423f 8f7b 4a3f
00000230: cada 473f 410a 3d3f 0c61 533f 1002 463f
00000240: 207b 483f 9279 4b3f 394a 4a3f ab95 553f
00000250: fdb8 423f e432 443f dd0b 573f fd40 4b3f
00000260: b114 523f 2b59 593f bf74 5b3f cd6b 403f
00000270: c20d 553f 1e39 493f accc 443f e448 4b3f
00000280: df84 513f 31d2 3e3f 6954 4c3f 6399 453f
00000290: 77fd 4d3f 06f9 4e3f eb21 4c3f d22b 443f
000002a0: 41cc 453f 4ad5 443f 69bf 483f 50c2 533f
000002b0: a82d 423f 4a50 403f 6b0b 4a3f d31f 4a3f
000002c0: 1af5 4f3f 03b6 4a3f babf 4a3f 50bb 503f
000002d0: 5f54 4f3f 1111 4a3f 7a54 443f 2eaa 463f
000002e0: c0c8 573f 5300 3e3f d79b 553f 21d9 573f
000002f0: b0f4 4b3f a9d7 453f b4f1 483f 7bd8 443f
00000300: d159 533f 6bd1 523f cc69 453f 51c2 453f
00000310: 34e2 493f 273e 483f c94b 503f 1832 523f
00000320: 6c83 5c3f 01b5 4b3f 9068 4b3f 7359 4d3f
00000330: a120 4b3f 29d1 3e3f 0b72 503f 5079 4c3f
00000340: 9da6 423f 26a8 463f d338 503f 4890 573f
00000350: cd59 4c3f d28c 423f 7e8d 4c3f 7773 453f
00000360: ae27 433f ecd1 493f 2247 3f3f 487f 483f
00000370: 96de 4b3f 5564 513f b9aa 4c3f 362d 433f
00000380: 6841 4d3f 1f7d 473f 169b 493f 2958 453f
00000390: 9670 553f eedd 463f f14b 503f 7029 443f
000003a0: a04d 523f 2fee 423f 82fb 423f 2adf 513f
000003b0: 78b2 523f 033d 4f3f a111 4b3f c1dd 4e3f
000003c0: 8b10 453f 168b 4e3f 2857 4e3f b418 433f
000003d0: 72b8 463f 9aae 4e3f f65b 4f3f 540d 433f
000003e0: 8731 463f f6b4 493f e7e1 463f f7f8 493f
000003f0: f168 483f 9625 443f 9b43 3e3f 8688 453f

sequental.2.bias f4 [256]
5.7094312e-05 -0.017936016 -0.02662448 0.0029838767 -0.007203007 -0.02460628 -0.025319476 -0.0134897195
-0.011713227 -0.058214426 -0.020785732 -0.0094622485 -0.02379351 -0.024627434 -0.039875578 -0.013327695
-0.010995833 -0.0067396504 -0.015255135 -0.0232487 -0.04397232 -0.02148172 -0.0056024576 -0.030157676
-0.04056631 -0.027600234 -0.02944995 -0.031564444 -0.013120243 -0.032035265 -0.009546413 -0.032645695
-0.010041231 -0.043941744 -0.009290488 -0.030034453 0.031186564 -0.01993079 -0.034444377 -0.01705305
-0.011724488 -0.011457901 -0.0096265795 -0.025947625 -0.0055760425 -0.013211364 -0.014362944 -0.0484726
-0.04189827 -0.005722012 -0.03212428 -0.0105736125 -0.030659279 -0.020575644 -0.006845487 -0.028084412
-0.03396429 -0.01925016 -0.022870796 0.008108808 -0.0145656075 -0.017158512 -0.013063497 -0.02149693
-0.005420376 -0.022830022 -0.046975184 -0.008597696 -0.024665743 -0.01406862 -0.045479964 -0.029723853
-0.008805665 -0.004517356 -0.014445427 -0.039241 -0.044748954 -0.010677607 -0.04616768 -0.028293122
-0.010055855 -0.016255885 -0.02343066 -0.03048881 -0.025153395 -0.021600079 -0.039358202 -0.012058392
-0.0007297221 -0.010687598 -0.003018247 -0.01926925 -0.057891298 -0.02579126 -0.015514828 0.0013614001
-0.014624437 -0.056403045 -0.036772676 -0.042293582 -3.2713438e-06 -0.024485065 -0.019513102 -0.020829724
-0.027893761 -0.030835262 -0.013140559 -0.01912623 -0.03298842 -0.041075874 -0.00033834914 -0.0121145
-0.012096731 -0.014619534 -0.019314708 -0.050453316 -0.04186476 -0.028273199 -0.020736542 -0.030321097
-0.0059286463 -0.0072533484 -0.0049750283 -0.02851605 -0.03407595 -0.005576233 -0.05675444 -0.009258893
-0.002727972 -0.012231299 -0.0160704 -0.02632654 -0.02788561 -0.015247139 -0.011095475 -0.008239944
-0.013715623 -0.014069996 -0.0136932405 -0.014261344 -0.018013852 -0.016435923 -0.0323137 -0.019868119
-0.047413185 -0.040391885 -0.047839824 -0.040836323 -0.019579299 -0.022333661 -0.008170569 -0.021952456
-0.026263209 -0.040015593 -0.034668226 -0.02955427 -0.015312927 -0.017535992 -0.007227687 -0.019267477
-0.011953605 -0.017902737 -0.0059961984 0.00071240583 -0.017709568 -0.009722407 -0.01781896 -0.013896807
0.0064438866 -0.04269936 -0.026421854 -0.033367965 -0.02412949 -0.037810266 -0.026625145 -0.007733837
-0.0409453 -0.007608385 0.00258254 -0.06479961 -0.012904922 -0.023898913 -0.017330239 -0.018081205
-0.013585579 -0.03555438 -0.00939303 -0.034445204 -0.015955763 0.004041039 -0.013253254 -0.026086636
-0.031875934 -0.056003276 -0.035094995 -0.022317955 -0.00953803 -0.033682656 -0.0318145 -0.009941701
-0.013115605 -0.037092526 0.018762955 -0.02676821 -0.0045591122 -0.023374636 -0.0043707103 0.0050471555
-0.013700043 -0.016134994 -0.010118311 -0.037733205 -0.017514208 -0.016048633 -0.019997863 -0.00515369
-0.042998243 -0.017790876 -0.023979746 -0.032628432 -0.027881004 -0.02582036 -0.024147246 0.0026344787
-0.012761969 -0.041090198 -0.029870652 -0.027809264 -0.014520576 -0.024118537 -0.031003864 -0.01666888
-0.04721722 -0.008360496 -0.029821204 -0.0256998 -0.009002034 -0.0339339 -0.0030965062 -0.007539792
0.007888705 -0.027771564 -0.017415388 -0.027858844 -0.018910117 -0.056329086 0.007794818 -0.018035803
-0.02575859 -0.008422989 -0.010123737 -0.004844943 -0.0131068155 -0.015748786 -0.01751187 -0.00289929
00000000: 8d78 6f38 8dee 92bc 951b dabc 258d 433b
00000010: 3407 ecbb 1c93 c9bc ca6a cfbc fc03 5dbc
00000020: d6e8 3fbc 4072 6ebd d746 aabc 8c07 1bbc
00000030: 9bea c2bc 79bf c9bc 9354 23bd 685c 5abc
00000040: de27 34bc 49d8 dcbb acf0 79bc 0f74 bebc
00000050: 521c 34bd 6ffa afbc d294 b7bb 3b0d f7bc
00000060: dc28 26bd e319 e2bc 0641 f1bc b849 01bd
00000070: 4af6 56bc 6937 03bd 8f68 1cbc 7eb7 05bd
00000080: fa83 24bc 42fc 33bd 2237 18bc d00a f6bc
00000090: f77a ff3c e545 a3bc 8c15 0dbd d7b2 8bbc
000000a0: 1118 40bc ecb9 3bbc cdb8 1dbc 1d90 d4bc
000000b0: 3cb7 b6bb 7a74 58bc 8e52 6bbc 348b 46bd
000000c0: 859d 2bbd b77f bbbb c094 03bd f23c 2dbc
000000d0: 2b29 fbbc 418e a8bc 1b50 e0bb 4811 e6bc
000000e0: 241e 0bbd 83b2 9dbc 895b bbbc ceda 043c
000000f0: 96a4 6ebc 0290 8cbc 4708 56bc 541a b0bc
00000100: 699d b1bb 0706 bbbc 0d69 40bd 5add 0cbc
00000110: d00f cabc 1280 66bc 3349 3abd 707f f3bc
00000120: a345 10bc 5406 94bb 83ac 6cbc 2cbb 20bd
00000130: ae4a 37bd 21f1 2ebc 521a 3dbd fac6 e7bc
00000140: 50c1 24bc 102b 85bc a8f1 bfbc abc3 f9bc
00000150: 7e0e cebc a6f2 b0bc 1136 21bd 9090 45bc
00000160: d24a 3fba 091b 2fbc c8cd 45bb 8cda 9dbc
00000170: 6d1f 6dbd 3148 d3bc e831 7ebc 0271 b23a
00000180: 569b 6fbc e106 67bd f29e 16bd 093c 2dbd
00000190: 4289 5bb6 e794 c8bc f1d9 9fbc 19a3 aabc
000001a0: 7581 e4bc 3b9a fcbc 804b 57bc 9dae 9cbc
000001b0: de1e 07bd 2d3f 28bd 7464 b1b9 e57b 46bc
000001c0: 5e31 46bc c586 6fbc e139 9ebc 23a8 4ebd
000001d0: 627a 2bbd 329d e7bc aedf a9bc f363 f8bc
000001e0: 1745 c2bb 7fad edbb 9005 a3bb 7e9a e9bc
000001f0: 3993 0bbd d5b8 b6bb 5877 68bd 9db2 17bc
00000200: c7c7 32bb c965 48bc 12a6 83bc c2aa d7bc
00000210: 5d70 e4bc 23cf 79bc ccc9 35bc d500 07bc
00000220: 7eb7 60bc d785 66bc 9d59 60bc 6aa8 69bc
00000230: c991 93bc a1a4 86bc 5f5b 04bd 77c2 a2bc
00000240: 5434 42bd f671 25bd b1f3 43bd fd43 27bd
00000250: c464 a0bc 15f5 b6bc dadd 05bc a3d5 b3bc
00000260: f125 d7bc 64e7 23bd 4500 0ebd cc1b f2bc
00000270: 12e3 7abc a4a7 8fbc 3cd6 ecbb d4d6 9dbc
00000280: 0ed9 43bc c3a8 92bc c27b c4bb bfc0 3a3a
00000290: a813 91bc bb4a 1fbc 11f9 91bc 6faf 63bc
000002a0: 3d27 d33b 86e5 2ebd a572 d8bc d9ac 08bd
000002b0: 35ab c5bc f0de 1abd fa1c dabc 206c fdbb
000002c0: 42b6 27bd c24f f9bb d53f 293b a8b5 84bd
000002d0: 2a6f 53bc a7c7 c3bc 25f8 8dbc 091f 94bc
000002e0: 0c96 5ebc 78a1 11bd 39e5 19bc 6a16 0dbd
000002f0: a9b5 82bc b16a 843b 2d24 59bc a4b3 d5bc
00000300: 5790 02bd b163 65bd c5bf 0fbd 25d4 b6bc
00000310: 6645 1cbc d3f6 09bd ec4f 02bd 84e2 22bc
00000320: d6e2 56bc 55ee 17bd c5b4 993c 0149 dbbc
00000330: 9b64 95bb 2a7c bfbc 2d38 8fbb 9c62 a53b
00000340: 2576 60bc 892d 84bc 46c7 25bc 228e 1abd
00000350: f579 8fbc 6c78 83bc 8fd2 a3bc 49e0 a8bb
00000360: ed1e 30bd 2cbe 91bc 2c71 c4bc 64a5 05bd
00000370: b466 e4bc 3885 d3bc 72d0 c5bc 38a7 2c3b
00000380: 9417 51bc 324e 28bd 4cb3 f4bc 41d0 e3bc
00000390: b6e7 6dbc 3d94 c5bc d1fb fdbc 2d8d 88bc
000003a0: d866 41bd 76fa 08bc 994b f4bc 6388 d2bc
000003b0: 447d 13bc 46fe 0abd c1ee 4abb 5c10 f7bb
000003c0: a03f 013c 3181 e3bc b7aa 8ebc 3b38 e4bc
000003d0: 64e9 9abc 54b9 66bd ac6b ff3b d2bf 93bc
000003e0: ae03 d3bc 9400 0abc 08de 25bc 54c2 9ebb
000003f0: f8bd 56bc 9903 81bc 0e75 8fbc 0402 3ebb

sequental.2.running_mean f4 [256]
0.18650056 -0.014864515 -0.26949897 -0.17390206 0.15591475 0.41593128 -0.054694682 -0.3998708
-0.09458848 -0.065862365 -0.07879692 -0.13836308 -0.14121577 -0.17451584 -0.24710637 0.12860276
0.08817649 -0.0968776 -0.38383427 -0.2670974 0.038734425 0.05873854 -0.022653481 -0.019423034
-0.06552406 0.0004013646 0.06885353 0.023940938 -0.3108701 -0.17967516 0.06269039 0.068096295
-0.14453143 -0.13541152 -0.22164878 -0.0970457 0.07390157 -0.4342823 0.0048551103 -0.038320124
-0.09767739 0.16015302 -0.08872946 -0.4822923 -0.23893453 -0.027711693 -0.17877902 -0.07321014
0.01598818 -0.09775796 -0.13206463 -0.047821827 -0.03617048 0.07467888 -0.09354674 -0.04171737
-0.083135255 -0.0044020186 0.05055841 0.06601045 -0.087779 0.004712521 0.031947605 -0.17039877
-0.22264707 -0.41200405 -0.090772785 0.07115691 0.048500795 -0.03375632 0.006599014 -0.25982738
0.04753464 0.0018643254 -0.49436492 0.019676404 -0.31068996 -0.1454129 -0.63389915 -0.14328763
0.14239569 -0.058815762 0.059165377 -0.04523143 -0.057677973 0.32255742 -0.01972349 -0.43787763
-0.01645946 0.028485058 0.14761968 -0.047856558 -0.05308117 -0.009312745 0.107176885 -0.054227903
0.010704147 0.04796319 -0.14046156 -0.099683374 -0.21378139 0.14737774 0.080876656 -0.17679201
-0.15637806 -0.04124807 0.31043348 -0.054543424 -0.054398768 -0.070520386 -0.295998 -0.057353918
-0.11433061 -0.057157204 -0.26653802 -0.4947223 -0.019820161 0.38402888 -0.008154892 -0.14935735
-0.06135709 -0.025140153 0.05143318 0.005311794 -0.24278025 0.15126276 -0.118166395 -0.14709856
0.041647088 -0.44139 0.05578417 -0.08219157 -0.055247072 0.22878426 0.080664836 -0.09848362
0.08440429 -0.019257363 0.10829772 0.036316115 -0.08662773 -0.20337918 -0.045731626 -0.16422936
-0.23889543 0.08662548 -0.04992215 -0.032407805 0.13524997 -0.07855699 -0.07266617 0.03475868
-0.018125417 -0.11591907 -0.075467825 -0.15488562 -0.19686532 -0.4793021 -0.1434461 0.004800877
-0.030003753 -0.3786115 -0.03664525 0.16697015 0.10527396 0.12991537 -0.124523275 -0.47756237
-0.05451005 -0.20043834 -0.40092427 -0.10798539 -0.24050291 -0.50677407 -0.16811344 0.5449109
-0.12168852 -0.09293069 -0.006384415 -0.057308625 0.015730262 0.49589837 -0.137099 -0.20435365
0.07420215 -0.23911469 0.09089294 -0.016308052 0.2578041 0.047290456 0.121805154 -0.8438551
0.042776182 -0.03817788 -0.1528995 -0.12194964 0.042720653 0.07881575 -0.04255007 0.09634871
-0.03286774 -0.1222685 0.26346293 0.04578633 0.17165078 -0.13933727 0.043278337 -0.16826479
-0.24568923 -0.16732247 -0.0006137062 -0.0763419 0.1866497 -0.020447878 0.0069466755 0.052729018
0.02480805 0.075299054 -0.006688203 -0.11071205 0.0057921186 -0.06633393 -0.20662655 -0.31638873
0.10332239 -0.5007099 -0.040386293 -0.026330145 0.013146235 -0.22200005 -0.025864441 0.42371058
-0.012283426 -0.2506592 -0.11860705 0.05118542 0.1418618 0.13462588 -0.05067475 0.3062254
0.33258668 -0.10881382 0.05597774 -0.6350683 -0.22657336 -0.07801514 -0.016313732 -0.13474427
0.050791837 0.08426117 -0.12595016 0.24276541 -0.06223913 0.01959311 -0.13131124 0.035830826
00000000: 01fa 3e3e 4b8a 73bc c5fb 89be 6213 32be
00000010: 1ea8 1f3e f2f4 d43e 8807 60bd debb ccbe
00000020: 9bb7 c1bd d9e2 86bd 4860 a1bd 0daf 0dbe
00000030: de9a 10be 48b4 32be 7409 7dbe 71b0 033e
00000040: e095 b43d c367 c6bd ed85 c4be fec0 88be
00000050: fda7 1e3d d397 703d cb93 b9bc 0e1d 9fbc
00000060: 7a31 86bd 3f6e d239 1403 8d3d c91f c43c
00000070: 5e2a 9fbe c4fc 37be d263 803d 1276 8b3d
00000080: 0c00 14be 51a9 0abe e6f7 62be e5bf c6bd
00000090: b559 973d 405a debe 9e17 9f3b 90f5 1cbd
000000a0: 150b c8bd 27ff 233e cbb7 b5bd 04ef f6be
000000b0: 41ab 74be a203 e3bc d911 37be 33ef 95bd
000000c0: a5f9 823c 5335 c8bd f33b 07be d2e0 43bd
000000d0: 7f27 14bd 3ef1 983d 6f95 bfbd d5df 2abd
000000e0: d142 aabd cf3e 90bb 5616 4f3d 7d30 873d
000000f0: 7ac5 b3bd 7e6b 9a3b 7edb 023d 047d 2ebe
00000100: 98fd 63be 32f2 d2be 15e7 b9bd b7ba 913d
00000110: c5a8 463d 1144 0abd 8b3c d83b 1808 85be
00000120: afb3 423d 615c f43a 661d fdbe 6930 a13c
00000130: c112 9fbe 1fe7 14be 3747 22bf feb9 12be
00000140: 2dd0 113e cce8 70bd 6557 723d 9844 39bd
00000150: bd3f 6cbd 3f26 a53e 2893 a1bc 7f31 e0be
00000160: fdd5 86bc 7f59 e93c 9d29 173e 3d05 44bd
00000170: a46b 59bd 7c94 18bc 8e7f db3d 141e 5ebd
00000180: 7260 2f3c 0d75 443d 28d5 0fbe cc26 ccbd
00000190: 82e9 5abe 31ea 163e a9a2 a53d f708 35be
000001a0: 9221 20be bcf3 28bd 23f1 9e3e ed68 5fbd
000001b0: 3ed1 5ebd fe6c 90bd 0d8d 97be f1eb 6abd
000001c0: 2b26 eabd ac1d 6abd ac77 88be 3e4c fdbe
000001d0: e45d a2bc 6f9f c43e 199c 05bc 22f1 18be
000001e0: 9251 7bbd b9f2 cdbc 99ab 523d 8f0e ae3b
000001f0: 639b 78be a0e4 1a3e 3901 f2bd 01a1 16be
00000200: 2396 2a3d dffd e1be f17d 643d 0e54 a8bd
00000210: c14a 62bd 6c46 6a3e 9b33 a53d c8b1 c9bd
00000220: 28dc ac3d 9ec1 9dbc 32cb dd3d 35c0 143d
00000230: e169 b1bd a242 50be 1651 3bbd be2b 28be
00000240: 01a1 74be b368 b13d 2b7b 4cbd 0cbe 04bd
00000250: f87e 0a3e 7de2 a0bd 00d2 94bd 1e5f 0e3d
00000260: c17b 94bc fa66 edbd e08e 9abd 569a 1ebe
00000270: 1097 49be 1667 f5be 89e3 12be ad50 9d3b
00000280: 6eca f5bc 5ed9 c1be 5419 16bd 39fa 2a3e
00000290: e099 d73d 8908 053e 0f06 ffbd 0e83 f4be
000002a0: ee45 5fbd b53f 4dbe f245 cdbe 7227 ddbd
000002b0: 6546 76be f2bb 01bf ee25 2cbe 487f 0b3f
000002c0: d537 f9bd 7252 bebd 5b34 d1bb 73bc 6abd
000002d0: c0dc 803c 64e6 fd3e ae63 0cbe 1542 51be
000002e0: 4cf7 973d 7bda 74be 1426 ba3d 7798 85bc
000002f0: e6fe 833e a3b3 413d fb74 f93d e306 58bf
00000300: 1436 2f3d 6960 1cbd b091 1cbe bcc0 f9bd
00000310: dafb 2e3d 276a a13d fb48 2ebd 7952 c53d
00000320: 53a0 06bd e867 fabd 9de4 863e 728a 3b3d
00000330: 39c5 2f3e 6eae 0ebe a044 313d 9b4d 2cbe
00000340: f595 7bbe 9556 2bbe 20e1 20ba 2459 9cbd
00000350: 1921 3f3e 4f82 a7bc f0a0 e33b 62fa 573d
00000360: 403a cb3c 6436 9a3d b728 dbbb 00bd e2bd
00000370: d0cb bd3b 15da 87bd e995 53be b4fd a1be
00000380: b09a d33d 862e 00bf 196c 25bd 51b2 d7bc
00000390: 4e63 573c fb53 63be aae1 d3bc 98f0 d83e
000003a0: 6c40 49bc 6756 80be 41e8 f2bd cea7 513d
000003b0: 3844 113e 5edb 093e 5490 4fbd 93c9 9c3e
000003c0: cd48 aa3e c8d9 debd ea48 653d d693 22bf
000003d0: d902 68be 67c6 9fbd 60a4 85bc 67fa 09be
000003e0: 1a0b 503d 1f91 ac3d 14f9 00be 7f97 783e
000003f0: 75ee 7ebd bb81 a03c 7476 06be 58c3 123d

sequental.2.running_var f4 [256]
0.10261913 0.058778614 0.049016207 0.06722215 0.05107211 0.048777193 0.042878363 0.05772626
0.0641222 0.029070582 0.10326912 0.111070246 0.042262256 0.06840753 0.038988445 0.08464907
0.06646203 0.133559 0.05781031 0.049560353 0.020609397 0.10426143 0.08769278 0.054684486
0.019000271 0.04116204 0.019984601 0.029084027 0.10312662 0.106784604 0.08851039 0.023518357
0.078180216 0.06889872 0.07629357 0.068720184 0.06533568 0.08477214 0.038033657 0.09048224
0.060122486 0.032973867 0.077490255 0.098406605 0.06801097 0.0838701 0.05045728 0.056875825
0.04063268 0.12036168 0.042731658 0.069165826 0.026533704 0.0730046 0.04466311 0.0727251
0.033485543 0.04236795 0.05488292 0.07185232 0.0582563 0.047414206 0.07989635 0.05854766
0.06173888 0.07048603 0.02802171 0.063555606 0.036192555 0.059993267 0.024806295 0.047603477
0.055425487 0.046181202 0.18334527 0.018963411 0.03995877 0.039818037 0.11949318 0.07166558
0.048884545 0.07142729 0.046449576 0.05212509 0.05321914 0.07338725 0.051203858 0.10514295
0.087500684 0.047890354 0.05406361 0.03805136 0.025644308 0.031499848 0.049657818 0.104804784
0.03566231 0.0334543 0.0815451 0.049062103 0.09100195 0.063896574 0.03168029 0.03842433
0.06299573 0.020989286 0.07268661 0.038261402 0.029194051 0.034330647 0.08575917 0.04669202
0.048474826 0.051038176 0.11808596 0.10558075 0.04275818 0.039915748 0.066063195 0.043915074
0.06803809 0.06537614 0.036730792 0.050202716 0.081455775 0.034651436 0.035045635 0.090545096
0.06998872 0.08637138 0.044839464 0.05252435 0.03858492 0.0926072 0.028480854 0.044085603
0.037733823 0.044759598 0.059449315 0.06387529 0.11151375 0.10847542 0.029470203 0.07374533
0.10365819 0.031645384 0.025851069 0.02820253 0.10622822 0.030232143 0.0434336 0.044487003
0.054182343 0.08565049 0.055883516 0.05222689 0.07484119 0.08138912 0.060556635 0.065860204
0.053943563 0.09778698 0.054242153 0.06609996 0.062959366 0.026876478 0.034877766 0.072153464
0.21082039 0.13528328 0.085751936 0.030379577 0.14547008 0.064353235 0.040371027 0.11283779
0.02931045 0.092212595 0.054283243 0.022464886 0.037536114 0.07612177 0.05159717 0.046638284
0.0454065 0.04515657 0.03524413 0.04379405 0.05341552 0.14567614 0.037130594 0.18763436
0.02233305 0.02818312 0.06352121 0.038114544 0.024424404 0.039864704 0.030930938 0.045221623
0.030238545 0.07018719 0.06947276 0.063136496 0.062617384 0.05424469 0.021369012 0.08166855
0.22366531 0.09764392 0.041030444 0.025510618 0.060639612 0.028281277 0.04990543 0.049223676
0.024696354 0.06367632 0.055008948 0.051126953 0.036700193 0.043590672 0.028006481 0.25329715
0.06297024 0.064453766 0.05622005 0.037868623 0.0356078 0.048221312 0.060961537 0.058083966
0.05836915 0.12144393 0.04918009 0.030648414 0.08795509 0.032759666 0.03080832 0.05065112
0.11692102 0.043933306 0.08833784 0.11403612 0.051218934 0.02249871 0.07117317 0.12595867
0.07525856 0.057407912 0.066031076 0.061988708 0.027206235 0.03720409 0.068508916 0.072365746
00000000: fa29 d23d d8c1 703d 38c5 483d c4ab 893d
00000010: fd30 513d 98ca 473d 39a1 2f3d 5f72 6c3d
00000020: 8052 833d 6e25 ee3c c37e d33d cc78 e33d
00000030: 301b 2d3d 3f19 8c3d 59b2 1f3d 7e5c ad3d
00000040: 3f1d 883d b1c3 083e 81ca 6c3d ccff 4a3d
00000050: 0ad5 a83c 0487 d53d 4698 b33d d7fc 5f3d
00000060: 75a6 9b3c 8799 283d bfb6 a33c a041 ee3c
00000070: 0d34 d33d e3b1 da3d ef44 b53d 92a9 c03c
00000080: f31c a03d c61a 8d3d ce3f 9c3d 2bbd 8c3d
00000090: b7ce 853d 049d ad3d 2ec9 1b3d c14e b93d
000000a0: ff42 763d 9b0f 073d 36b3 9e3d 6789 c93d
000000b0: 5649 8b3d 16c4 ab3d 4bac 4e3d a0f6 683d
000000c0: 746e 263d 2f80 f63d 6407 2f3d d0a6 8d3d
000000d0: 365d d93c 7083 953d aaf0 363d e6f0 943d
000000e0: 2328 093d 048a 2d3d eacc 603d 4f27 933d
000000f0: 289e 6e3d 6635 423d b3a0 a33d accf 6f3d
00000100: e8e1 7c3d fb5a 903d c98d e53c 7129 823d
00000110: a53e 143d 80bb 753d 9236 cb3c ddfb 423d
00000120: d605 633d 8028 3d3d ddbe 3b3e 2859 9b3c
00000130: cfab 233d 3d18 233d d7b8 f43d 67c5 923d
00000140: 293b 483d 7948 923d e941 3e3d 1e81 553d
00000150: 50fc 593d 0e4c 963d 23bb 513d 3055 d73d
00000160: 8f33 b33d ad28 443d ce71 5d3d bedb 1b3d
00000170: 0314 d23c fc05 013d ff65 4b3d e4a3 d63d
00000180: a412 123d 6007 093d 1e01 a73d 58f5 483d
00000190: 3b5f ba3d 35dc 823d 31c3 013d d562 1d3d
000001a0: e803 813d b9f1 ab3c b8dc 943d fdb7 1c3d
000001b0: 5d28 ef3c 4b9e 0c3d 81a2 af3d 2240 3f3d
000001c0: 8a8d 463d 680d 513d 0dd7 f13d b83a d83d
000001d0: 3423 2f3d b27e 233d 244c 873d 4be0 333d
000001e0: 8e57 8b3d ede3 853d 0773 163d 5da1 4d3d
000001f0: 49d2 a63d aaee 0d3d 038c 0f3d b56f b93d
00000200: 3f56 8f3d 7ae3 b03d 96a9 373d c623 573d
00000210: 390b 1e3d d8a8 bd3d ae50 e93c 1b93 343d
00000220: c88e 1a3d d755 373d 2081 733d 0cd1 823d
00000230: 5261 e43d 5c28 de3d 7f6b f13c cb07 973d
00000240: bf4a d43d 979e 013d 9fc5 d33c fe08 e73c
00000250: 2e8e d93d 66a9 f73c 6ee7 313d 0138 363d
00000260: 4eee 5d3d 8669 af3d 1de6 643d ddeb 553d
00000270: 5646 993d 57af a63d 3c0a 783d b7e1 863d
00000280: edf3 5c3d 8a44 c83d 052d 5e3d 6a5f 873d
00000290: d7f0 803d 0f2c dc3c fddb 0e3d 32c5 933d
000002a0: 4de1 573e b387 0a3e b69e af3d 97de f83c
000002b0: 1cf6 143e a1cb 833d 175c 253d 8017 e73d
000002c0: 781c f03c f5d9 bc3d 1b58 5e3d 4808 b83c
000002d0: 78bf 193d bbe5 9b3d 8e57 533d c907 3f3d
000002e0: 2bfc 393d 18f6 383d 265c 103d 6461 333d
000002f0: 3bca 5a3d 202c 153e 4016 183d 3923 403e
00000300: cdf3 b63c 49e0 e63c 6817 823d ff1d 1c3d
00000310: b015 c83c 2c49 233d e162 fd3c 4f3a 393d
00000320: d3b6 f73c 4dbe 8f3d bc47 8e3d b54d 813d
00000330: 8b3d 803d ae2f 5e3d 110e af3c d741 a73d
00000340: 8508 653e 89f9 c73d 8a0f 283d a5fb d03c
00000350: 3e61 783d 23ae e73c a369 4c3d c49e 493d
00000360: 0250 ca3c bb68 823d 1051 613d 7f6a 513d
00000370: f152 163d 228c 323d d96d e53c 2ab0 813e
00000380: 8bf6 803d 5600 843d ff46 663d 211c 1b3d
00000390: 7cd9 113d b683 453d ceb2 793d 74e9 6d3d
000003a0: 7d14 6f3d 98b7 f83d 1071 493d 6212 fb3c
000003b0: cc21 b43d 002f 063d bb61 fc3c 8c77 4f3d
000003c0: 4a74 ef3d 69f3 333d 78ea b43d c58b e93d
000003d0: f2ca 513d 374f b83c 3dc3 913d 4ffb 003e
000003e0: 2921 9a3d 8f24 6b3d 4d3b 873d dfe7 7d3d
000003f0: 9cdf de3c 5163 183d 674e 8c3d 7e34 943d

sequental.4.weight f4 [128, 256]
0.005862309 -0.03326273 -0.02430455 -0.028099451 -0.023443602 -0.032370985 -0.026000155 -0.02063611
-0.03285506 -0.015844084 0.011485895 -0.019485237 -0.0433285 -0.030016629 -0.059736304 0.01971844
0.054450225 -0.026346477 0.0565689 0.03645267 -0.0078287 0.011858268 -0.016177192 0.027139124
0.0539774 -0.040843908 0.005716662 -0.04488834 0.019746529 0.0026425752 0.021049866 -0.05900968
0.04079335 -0.008263926 -0.03285502 -5.4350723e-05 0.010616389 0.03361803 -0.026623456 0.013335289
-0.015468643 0.016982198 0.0038931277 0.007382861 -0.03717286 0.042187676 0.006705132 -0.04341842
-0.009256872 -0.02982721 -0.0010863526 -0.026600637 -0.062311422 -0.048496816 -0.042545695 0.023842227
-0.02704383 -0.008344939 -0.014990624 0.0044307276 -0.008209772 -0.05148537 0.026892902 0.013123262
-0.0096475165 -0.0077840877 -0.026078034 -0.008201172 0.0072366935 0.022199582 0.022123782 -0.063459635
0.005681309 0.03207023 0.03574095 -0.011258788 0.017219078 -0.02808219 0.034022085 0.007354922
0.030958243 0.010597293 -0.0029370259 0.038836364 -0.017028514 0.003037695 -0.030774005 -0.0073602516
-0.02814176 -0.029557737 -0.0071572354 0.024008604 -0.020774597 -0.001367428 0.036743958 0.0056832707
0.013956972 -0.043964658 -0.009141728 -0.029488543 0.008225754 0.029101402 -0.028748749 0.035131324
-0.045683097 -0.044066228 -0.006736604 0.026990902 -0.03222705 -0.043371685 -0.00019134596 0.03318739
-0.029509611 0.025288552 -0.019012613 -0.0025946458 0.007766599 0.060771823 -0.0052255383 -0.031454884
-0.0021689283 0.015340575 -0.037236795 0.005405849 0.020970793 -0.030624388 0.018326351 0.052672114
-0.007608599 -0.024814121 0.005443042 -0.019246256 -0.020193325 0.027144393 -0.018025726 -0.01707473
-0.0152198 -0.014315151 -0.010748626 0.017332872 0.04223418 0.04382443 -0.040850382 0.04858574
-0.048743237 0.0071530226 -0.05205713 0.013676874 -0.020274805 -0.015696831 0.02425973 -0.013224192
-0.04498129 0.030339537 0.028229862 0.0064748474 -0.0380841 0.013354158 -0.050343134 0.030898092
-0.010981476 0.045496795 -0.018013041 0.02118875 0.024183143 -0.042729385 0.035737533 0.049577247
-0.0023706388 -0.03896108 -0.032635286 -0.04200938 -0.0097465115 -0.026111564 0.031015333 -0.028007768
-0.034769215 0.008727565 0.064673975 -0.004743017 -0.03247804 -0.01095142 -0.049454078 -0.038343746
0.026084315 -0.053887066 0.014942224 -0.020616122 0.008311785 -0.013898097 0.0010095227 0.023443993
-0.07472743 -0.04862161 0.004728467 -0.012155835 -0.014661718 0.016298467 0.010001398 -0.06385814
0.02479606 0.05503663 -0.0061058924 -0.04033944 0.00016597792 -0.0036964493 -0.0026437282 0.012026685
0.009706106 0.01910027 -0.008977286 -0.028185608 -0.011920101 0.0056276163 -0.032121312 0.026578417
0.04002089 -0.040036753 -0.03752474 0.031723235 -0.015065512 -0.037399914 -0.013665022 -0.013430517
-0.0009674023 0.032461356 -0.026157912 0.026583908 0.03711222 0.02214716 -0.014224565 -0.036936507
-0.013475891 0.008852397 -0.008947774 0.013516478 -0.004199764 -0.021440111 0.014684326 -0.015261161
0.027197434 0.011101873 -0.013473155 -0.009002019 0.01171453 0.012525905 0.0045113144 -0.0420415
-0.017670702 -0.039694548 0.02802849 0.008139941 0.0075865765 0.010977642 -0.009261877 -0.0030246805
00000000: 9d18 c03b 803e 08bd 561a c7bc d230 e6bc
00000010: cc0c c0bc 7097 04bd 47fe d4bc 0f0d a9bc
00000020: 0793 06bd 74cb 81bc 562f 3c3c 819f 9fbc
00000030: 3a79 31bd 6fe5 f5bc 0eae 74bd 9188 a13c
00000040: 3307 5f3d 91d4 d7bc cab4 673d 654f 153d
00000050: f343 00bc 2e49 423c 0886 84bc de52 de3c
00000060: 6817 5d3d f14b 27bd d652 bb3b d6dc 37bd
00000070: 79c3 a13c 0e2f 2d3b c570 ac3c 22b4 71bd
00000080: ee16 273d 6b65 07bc fc92 06bd a5f6 63b8
00000090: 5df0 2d3c 0fb3 093d 6f19 dabc 427c 5a3c
000000a0: 3170 7dbc 401e 8b3c d823 7f3b edeb f13b
000000b0: 9242 18bd fccc 2c3d b9b6 db3b 83d7 31bd
000000c0: 23aa 17bc 3158 f4bc f263 8eba 94e9 d9bc
000000d0: 433a 7fbd 99a4 46bd 6544 2ebd c650 c33c
000000e0: 068b ddbc 36b9 08bc 3c9b 75bc a32f 913b
000000f0: 4882 06bc 53e2 52bd 814e dc3c f302 573c
00000100: 9e10 1ebc a911 ffbb 9aa1 d5bc 355e 06bc
00000110: c921 ed3b e6db b53c ef3c b53c 20f7 81bd
00000120: 462a ba3b 135c 033d 1a65 123d c876 38bc
00000130: 060f 8d3c 9f0c e6bc be5a 0b3d 8f01 f13b
00000140: 249c fd3c 45a0 2d3c 1e7b 40bb e112 1f3d
00000150: 627f 8bbc 1114 473b c419 fcbc 442e f1bb
00000160: 8c89 e6bc 1123 f2bc 3e87 eabb b1ad c43c
00000170: 7d2f aabc 453b b3ba d580 163d bb3a ba3b
00000180: c9ab 643c 4914 34bd 30c7 15bc f591 f1bc
00000190: 50c5 063c 1066 ee3c 7f82 ebbc dde5 0f3d
000001a0: 331e 3bbd ca7e 34bd bbbe dcbb 061c dd3c
000001b0: 8300 04bd 82a6 31bd 0aa4 48b9 80ef 073d
000001c0: 24be f1bc f029 cf3c 57c0 9bbc ef0a 2abb
000001d0: f47e fe3b e0eb 783d fe3a abbb d6d6 00bd
000001e0: 9424 0ebb 0957 7b3c 9c85 18bd 8c23 b13b
000001f0: f1ca ab3c ffdf fabc 2521 963c b7be 573d
00000200: 8e51 f9bb fc46 cbbc 8c5b b23b 53aa 9dbc
00000210: 796c a5bc eb5d de3c b0aa 93bc 4ee0 8bbc
00000220: 785c 79bc 188a 6abc 011b 30bc abfd 8d3c
00000230: bffd 2c3d 3f81 333d bb52 27bd d701 473d
00000240: fda6 47bd e763 ea3b db39 55bd f814 603c
00000250: 5917 a6bc a496 80bc 57bc c63c 48aa 58bc
00000260: 4d3e 38bd 9f8a f83c 5042 e73c f52a d43b
00000270: 13fe 1bbd 66cb 5a3c 9a34 4ebd ff1d fd3c
00000280: a6eb 33bc d95a 3a3d 1690 93bc 0894 ad3c
00000290: ba1b c63c 0205 2fbd 8561 123d 8311 4b3d
000002a0: b85c 1bbb a795 1fbd 94ac 05bd 0712 2cbd
000002b0: d5af 1fbc ebe7 d5bc de13 fe3c 8c70 e5bc
000002c0: 2a6a 0ebd 10fe 0e3c ca73 843d 4f6b 9bbb
000002d0: b107 05bd 966d 33bc 5c90 4abd 550e 1dbd
000002e0: c6ae d53c afb8 5cbd 3bd0 743c 24e3 a8bc
000002f0: 272e 083c d8b4 63bc f651 843a 9e0d c03c
00000300: b20a 99bd 7427 47bd 42f1 9a3b 4429 47bc
00000310: b437 70bc 5d84 853c e7dc 233c 0ec8 82bd
00000320: 1b21 cb3c 176e 613d f013 c8bb f83a 25bd
00000330: 5c0a 2e39 2140 72bb 6642 2dbb 930b 453c
00000340: 5c06 1f3c 2b78 9c3c 7715 13bc 81e5 e6bc
00000350: 874c 43bc de67 b83b a391 03bd fbba d93c
00000360: f2ec 233d 94fd 23bd 8bb3 19bd 39f0 013d
00000370: 56d5 76bc a730 19bd 42e3 5fbc ac0b 5cbc
00000380: 4599 7dba 33f6 043d 1e49 d6bc 7fc6 d93c
00000390: fc02 183d f66d b53c 260e 69bc bc4a 17bd
000003a0: fcc9 5cbc a509 113c af99 12bc 3874 5d3c
000003b0: 2d9e 89bb 2ca3 afbc 8796 703c f309 7abc
000003c0: 27cd de3c a1e4 353c 82be 5cbc 347d 13bc
000003d0: 4dee 3f3c 7439 4d3c a6d3 933b b533 2cbd
000003e0: 26c2 90bc c096 22bd 019c e53c 635d 053c
000003f0: d198 f83b 91db 333c 21bf 17bc b839 46bb

sequental.4.bias f4 [128]
0.022254158 0.017895544 -0.009019678 0.03780587 0.055067398 0.009317363 0.019535825 0.019883398
0.02098287 0.024064235 -0.013386225 0.0016193391 -0.044016976 -0.014440619 0.006637494 -0.03604565
-0.046750333 0.057039406 -0.0013360507 0.013258118 -0.049640484 -0.03269945 0.05254799 0.0072596883
-0.0058595506 -0.018765654 0.0033966664 -0.057549942 -0.028937113 -0.039624557 -0.03365249 -0.025753193
-0.04962358 0.019896219 -0.027174966 0.054169264 0.058323786 -0.03657988 0.06321618 -0.036941897
-0.0038208691 -0.04409264 -0.0045042164 0.007209594 0.048276927 0.006050496 0.011146273 -0.010549748
0.018242653 -0.007964642 0.04274248 0.037870638 0.014264077 -0.027204348 0.01299684 0.0041902643
0.04677349 0.018403664 -0.03176684 0.033047374 -0.025582599 0.018256387 -0.04949446 -0.008878581
0.043927375 -0.02164564 -0.03241853 0.03247773 0.0036965099 0.0295861 -0.047566764 -0.047684368
0.031090062 0.035605174 0.032374226 0.02624624 0.06481969 0.046071347 -0.0004060224 -0.03816784
0.049687926 0.05718431 0.027976457 0.028697232 0.06436571 -0.043689813 0.04510798 -0.024285987
-0.0039539114 -0.025011051 -0.026902596 0.031154644 0.03782315 -0.0428907 -0.03707089 0.024487298
-0.06389049 -0.04297775 -0.049249135 0.025636306 -0.009985922 0.03145782 -0.02645373 0.020920696
0.018382793 0.014615284 -0.010251935 0.023393882 0.0620032 -0.0013684727 0.03848773 0.0038678504
0.02983196 -0.043242086 0.04957326 -0.052386362 0.05938251 -0.013373017 0.016258912 -0.03972983
0.00210521 -0.008107196 -0.040345255 0.06428411 0.041074555 0.023484398 -0.013143647 0.0023398648
00000000: 5a4e b63c ad99 923c 46c7 13bc 54da 1a3d
00000010: 5a8e 613d daa7 183c 9809 a03c 82e2 a23c
00000020: 45e4 ab3c 5c22 c53c e651 5bbc 0140 d43a
00000030: 254b 34bd 5998 6cbc 567f d93b 9aa4 13bd
00000040: 477d 3fbd 27a2 693d 6c1e afba 9438 593c
00000050: d253 4bbd dcef 05bd 903c 573d aee2 ed3b
00000060: 7901 c0bb 6eba 99bc 9b9a 5e3b 7db9 6bbd
00000070: 860d edbc 5c4d 22bd 31d7 09bd 5cf8 d2bc
00000080: 1842 4bbd 65fd a23c 099e debc 97e0 5d3d
00000090: ece4 6e3d c9d4 15bd 7c77 813d 6350 17bd
000000a0: 8c67 7abb 7c9a 34bd 1b98 93bb 753e ec3b
000000b0: 07be 453d 3d43 c63b dc9e 363c dad8 2cbc
000000c0: 9e71 953c 217e 02bc bd12 2f3d 3e1e 1b3d
000000d0: e0b3 693c a7db debc b3f0 543c 7c4e 893b
000000e0: 8f95 3f3d 48c3 963c f21d 02bd af5c 073d
000000f0: 9992 d1bc 6b8e 953c b4ba 4abd 7877 11bc
00000100: 31ed 333d 3252 b1bc 4bc9 04bd 5e07 053d
00000110: 2541 723b 8c5e f23c 5ed5 42bd af50 43bd
00000120: 96b0 fe3c bbd6 113d d69a 043d 5b02 d73c
00000130: 30c0 843d 4fb5 3c3d 67df d4b9 e255 1cbd
00000140: 9185 4b3d 183a 6a3d e22e e53c 7516 eb3c
00000150: 2bd2 833d 17f4 32bd 25c3 383d 68f3 c6bc
00000160: d08f 81bb fae3 ccbc d562 dcbc 0638 ff3c
00000170: 73ec 1a3d 29ae 2fbd a5d7 17bd 9699 c83c
00000180: 04d9 82bd 7009 30bd 76b9 49bd 3b03 d23c
00000190: fe9b 23bc ead9 003d 7eb5 d8bc e161 ab3c
000001a0: 8397 963c f274 6f3c bbf7 27bc 87a4 bf3c
000001b0: 11f7 7d3d 535e b3ba 4fa5 1d3d c37b 7d3b
000001c0: 2862 f43c 9d1e 31bd 550d 4b3d 1593 56bd
000001d0: 133b 733d 801a 5bbc 6931 853c bfbb 22bd
000001e0: 90f7 093b 0bd4 04bc 1141 25bd 63a7 833d
000001f0: cb3d 283d 5a62 c03c 7458 57bc 6b58 193b
