03 Сверточная сеть/Работа с цифрами/mnist_model.pth (torch, 420144 bytes, 8 tensors)

0.weight f4 [32, 1, 3, 3]
00000000: 570a b73c 8652 10be 5b20 253e 80f9 edbe
00000010: 5757 1cbe 39a7 d93e 4e27 853a e36c f83e
00000020: 2de8 36bc 4f2d 1fbe eab8 0f3e 5f90 af3c
00000030: a839 f4bd f76e 293e acec dfbe 8a79 713e
00000040: 1224 d13d 02ad 39bd 36da 0d3f 4237 67be
00000050: 794f c4be ba23 493d e471 57bf e81c b83e
00000060: 40e2 17bf 6689 6fbe 2bfa 863e eabd 7ebe
00000070: 191e 0bbf 1874 8cbd a7d8 573e 79ce bc3e
00000080: 43b1 8d3e 8f02 b6bd 73cd d6bd 7149 e8bd
00000090: 7a0d 8c3d 778c 023f b9c4 bc3d 9f8e 983e
000000a0: 2b00 73bd 3672 abbe 191e 813e 077f 16bf
000000b0: ea50 19be 160a 6abc d4c2 bbbe b22d 8e3e
000000c0: 36c4 c9be c30d 7abc d0e8 653e 464d 6b3e
000000d0: 5481 cd3e 3cfa 60bd 90b5 d23e c988 883e
000000e0: 316f 993e c417 b3be 5eb0 853d 67fb 7f3c
000000f0: f593 92be 13f5 ccbe 922c d4be bc6a 90be
00000100: 1be9 9bbd 0b42 a93d de77 0dbe 5879 24be
00000110: fffa 84be 36e2 a7be ae73 1b3e ab6c e7bb
00000120: f27c 1a3e a3ea 253d b939 95be c12c a3be
00000130: 4d5d f93e 54fb 433e e2b3 0bbf bf09 803e
00000140: 5eed 3dbe fa45 1e3d 544b 933d 936b e23d
00000150: ef45 a0be 0b86 803c 8048 493e e922 83be
00000160: c438 5c3e 4911 a03e f051 a23e 0b63 d23d
00000170: 9df3 2cbf 7d9c b8be 47ba 093f 76b1 e83d
00000180: 6ece a43c 1e00 573e e4e1 b5bd dec0 303e
00000190: 39a7 bb3e 13ef b43c 6dca 48be f55f bdbe
000001a0: ec6e 533d 58e7 acbe b09b 86bd b2bc 923e
000001b0: b912 94be 1303 1ebf fbab c33e 425b a7be
000001c0: a528 10bf 668e a53d 5738 93be a18e 05bf
000001d0: 6146 12be cf16 283e b4b6 a2be 9cd3 dbbe
000001e0: a7af 003f f6de 9bbe fd08 d0be 3d8f e83e
000001f0: 1f6c ee3e d503 c6bc 557e cabe d264 85be
00000200: d9a4 863d bb38 483e fe92 c53e a20d 673e
00000210: 2dad 553d 066f 12bf 8591 03be 4cdc 8c3e
00000220: e97c 673c 784f f8be 9208 b63e e7ad 30be
00000230: 1063 e8be edf1 52be 3600 823d ba82 2cbc
00000240: e93a e93e 8485 9fbd 3904 b9be 3801 973e
00000250: 5a4f 0dbf 6ecf d2be 3022 b6bd f1c3 5dbf
00000260: 371b 823e 401f edbd fac0 f63e 9dc9 f93d
00000270: 9aa4 f8be 2e00 44be c625 273e 55f0 afbe
00000280: 8d35 523d 27cb f8bd 39bf a43e 4bf3 81be
00000290: cee2 023e 4d6b 5dbe 8a2d 51be 0527 543e
000002a0: c02f 34bc 5f8f d63d 34d1 46bd a4dd ffbe
000002b0: 9508 dbbd 77e9 1dbe 89ed d1be 9857 8c3e
000002c0: 1c6f 343e 6809 d93e 60a5 1d3e e409 07be
000002d0: 7b1c 153d 393b cbbe aff5 b0be e696 763e
000002e0: 06a2 a83e d689 ce3e c10a 76be 1625 00bf
000002f0: a11b 833d 8455 de3d 3fe4 a23d 07fc 343d
00000300: 7f0f 80be 2dc1 033e a11d a8bd 4562 d53d
00000310: 25b8 89bd bfdd f8bd 65d7 6e3e ad3d 69bd
00000320: 93e3 06bf fa45 2dbf 2b07 6bbf 1848 b8ba
00000330: cf6d e8be 7bfd b73e 592d 263f 0085 4a3e
00000340: 26f4 83be 3d54 4bbf 3884 9c3e 7e04 80be
00000350: cd32 3bbf 8354 ddbe a511 36bf 4366 bdbe
00000360: 8362 96be 64eb 3abf 6478 9bbe 3e0c c43e
00000370: 6fd0 09be 8657 9a3e 91e1 923e 0b52 b53e
00000380: 1a63 1fbe d29f 083e 0b69 fdbd e273 913e
00000390: 5ded a13e a8c0 d43e 4ce5 d4bc 67d3 04bf
000003a0: 1394 1cbf 9b25 943d a0da 2abe d4b1 91be
000003b0: 066b 1abe c8db 973e 5895 603e 2bf6 193e
000003c0: 6e0b e1be 5434 d23b ffe4 c3bc 233e 963d
000003d0: 4ab6 6bbe 96b5 583e 8393 a73d dd76 783e
000003e0: 8763 19be e758 de3d fd71 ebbd 3ac3 84be
000003f0: e743 87bf 50b1 c8be 1430 a33e dc30 3abf
0.022343798 -0.1409398 0.16125624 -0.46479416 -0.15267693 0.42510393 0.0010158808 0.48520574
-0.011163753 -0.15544628 0.14035383 0.021431146 -0.119250596 0.16546236 -0.43735254 0.2358152
0.10211958 -0.04533101 0.5541109 -0.22579673 -0.38341883 0.049106337 -0.8415816 0.35959554
-0.59329605 -0.23392257 0.26362738 -0.24877134 -0.543428 -0.068580806 0.2107874 0.36876276
0.27674302 -0.08887207 -0.10488405 -0.11342133 0.06838508 0.5099558 0.09217209 0.2979631
-0.059326332 -0.33485574 0.25218275 -0.5878758 -0.14972273 -0.014284631 -0.3667208 0.27769238
-0.3940751 -0.01526207 0.22452092 0.22978696 0.40137732 -0.054926142 0.41154146 0.2666686
0.29967645 -0.3497907 0.0652778 0.015623904 -0.28628507 -0.40030727 -0.41440254 -0.28206432
-0.07612821 0.0826455 -0.13815257 -0.16061914 -0.25972745 -0.32789773 0.15180847 -0.007062515
0.15086725 0.04050697 -0.291456 -0.31870082 0.48703995 0.19138843 -0.54571354 0.25007436
-0.1854758 0.038640954 0.07192102 0.110556744 -0.31303355 0.015688917 0.19656563 -0.25612572
0.2150603 0.31263188 0.31703138 0.10272797 -0.67559224 -0.3605689 0.5379986 0.11361973
0.020117965 0.20996138 -0.08880976 0.17261073 0.36651018 0.022086656 -0.1960847 -0.36987272
0.051619455 -0.3377025 -0.06572664 0.28659588 -0.28920534 -0.6172344 0.38217148 -0.32686812
-0.5631202 0.08083801 -0.2875392 -0.5217076 -0.1428466 0.16414951 -0.31780016 -0.42934883
0.50268024 -0.30443543 -0.40631858 0.45421782 0.46566865 -0.02417175 -0.3954951 -0.26053482
0.06574411 0.19552891 0.3858871 0.22563794 0.052167106 -0.5720066 -0.1284848 0.27511823
0.014128902 -0.4849813 0.35553414 -0.17253838 -0.4538808 -0.206001 0.063476965 -0.0105292145
0.45552757 -0.07789138 -0.36136034 0.29493117 -0.55199206 -0.4117388 -0.088932395 -0.8662711
0.25411388 -0.11578226 0.48194104 0.12196658 -0.4856308 -0.19140694 0.16323003 -0.34363046
0.0513206 -0.12148123 0.3217714 -0.2538093 0.12781832 -0.21622963 -0.20427528 0.2071801
-0.010997713 0.104765646 -0.048539355 -0.49973786 -0.10694996 -0.15421091 -0.41001537 0.2741058
0.1762051 0.4238999 0.15395117 -0.13187367 0.036404114 -0.3969362 -0.34562442 0.24081
0.32936114 0.40339535 -0.2402754 -0.5005659 0.06401754 0.108561546 0.07953691 0.044185665
-0.25011823 0.1286666 -0.08208776 0.10419134 -0.06724576 -0.1215167 0.23324354 -0.056943584
-0.52691 -0.676849 -0.9180781 -0.0014059572 -0.45396277 0.35935578 0.64912945 0.19777298
-0.25772208 -0.7942541 0.30569625 -0.25003427 -0.7312439 -0.4322854 -0.71120673 -0.36992082
-0.29372033 -0.7301543 -0.30365288 0.3829059 -0.13458417 0.301449 0.2868772 0.35414156
-0.15565148 0.13342217 -0.12373551 0.28408724 0.31626406 0.41553235 -0.025988244 -0.51885074
-0.61163443 0.07233735 -0.16684961 -0.28455985 -0.15079889 0.29659867 0.2193197 0.15035312
-0.43954033 0.0064149294 -0.023912905 0.073360704 -0.23018757 0.2116302 0.081824325 0.24264093
-0.14979373 0.108568005 -0.11496351 -0.25930196 -1.0567597 -0.3919778 0.31872618 -0.72730803

0.bias f4 [32]
00000000: 8e13 8dbe 4b1d 0ebe b4ec 51bd 4300 02bd
00000010: 17e4 0ebe 5373 c6be ddf0 553c 13c9 1fbe
00000020: bdf1 a0bd 2dac a3be e2f7 76be 3547 44be
00000030: 50c8 d33d d9f9 d8bd 8371 d5bc 827c 883b
00000040: 1467 803d e0f9 66bd 2823 55be 1baf acbd
00000050: ec80 98bd 686b bbbe ecf4 9f3d cd2a 4b3e
00000060: 8525 f73d 1179 86bc 159d 1ebc 4518 4dbe
00000070: 4c2f 5abd 0dbf 88be 6bb6 0ebd d7cf 293e
-0.27553982 -0.13878362 -0.05125113 -0.03173853 -0.13954197 -0.3875986 0.013057915 -0.15604047
-0.07858608 -0.31967297 -0.24117997 -0.19167788 0.10340941 -0.1059453 -0.026055103 0.004165233
0.062696606 -0.056390643 -0.20814192 -0.08431836 -0.07446465 -0.36605382 0.07810387 0.19840546
0.12067703 -0.01641515 -0.009681006 -0.2002879 -0.053267762 -0.2670826 -0.034841936 0.16583191

3.weight f4 [64, 32, 3, 3]
00000000: f2a9 7bbe 31d9 94bc 83f7 923e 7f23 adbc
00000010: 404b be3e 67e4 1dbe 201d c0bd 2cd7 8ebe
00000020: ae5f d6be 76d9 7fbd a9ce 9cbd 71a3 febc
00000030: deb6 2c3d 2c62 73bd 5d58 7ebe c1cf 473d
00000040: 7947 8b3c 8880 58be 87f8 833c 8f1f aa3c
00000050: d0cb 8e3e 3e88 94bd 0932 583e 6891 b53d
00000060: 22bd 13be 5f23 5a3e 72c3 123e 1694 dcbd
00000070: 1afa 9fbd b35d 59bd d0d9 93bd 8835 003e
00000080: a56f 903e ccd1 343d 9c31 b63c 63a8 04bf
00000090: cf1a 8abd f5be a6be a478 38be 7bf5 efbe
000000a0: 196e 3d3e 7e21 003f 21a7 ff3d 3bfc 983e
000000b0: 15a6 723c 9eba 39be 1566 afbd dfe5 ce3d
000000c0: 8d6a 60bc 0cdb 5f3e b81f 83bc 7244 5ebd
000000d0: cfe0 73be 840d 28be f0c1 8c39 079a 4ebd
000000e0: a91e 99be c1f2 babe 1f8d a1be 5461 1a3e
000000f0: c742 dbba 0874 263e 6264 d93d 3d86 683d
00000100: 56d5 4ebd c559 1bbd f0db 65bd 1aa8 84bc
00000110: 2ea1 4f3d ee65 9abc 4b09 5abd 1d27 20bc
00000120: 0096 093e ca45 f73d 85de 353d 1b8d 96bb
00000130: a0fc 8c3e 2dba 793d 63bc 08be e118 023d
00000140: 7f3a d5be 9c5f 5fbe 615b 93bc 1f55 223e
00000150: 15b3 0cbd 4aac 6f3d 4f9a 64be 57ac 42be
00000160: 17e0 78be 70e6 dbbe 487e bdbd 6b73 813c
00000170: 93e9 843e 323c 44bd 9e7d cebd f0b2 39be
00000180: 3f6a f53a c44a b1be 88e9 0cbf 0c04 c0bd
00000190: 79a4 303e 7e2c b83d 462a c6bd 42ce 83be
000001a0: a3e4 4a3e 8cb1 a9bd a4e2 043e d57c 5bbd
000001b0: aee8 853d 2b78 0d3e b13c 0e3d 8276 d53d
000001c0: 9981 14be 2be9 62be bc2c 31be fa0d c9be
000001d0: ff36 c2bc 7457 07bd 7989 ccbe a78e dcbd
000001e0: 7845 0a3e e1f9 40be 91dd d0be 4035 f13d
000001f0: b8f3 053d a33b 1cbe 1e0f d93d ba71 ecbd
00000200: 4b28 12be 42ac aa3d 601a 6d3e 979d 103f
00000210: 71d3 733c ad58 a83e 9df5 b2be e91a 2f3d
00000220: e17a aabd 05eb fdbd 3245 0e3d 1d42 e4bd
00000230: 9443 61be a406 81be ffad 853e 88c6 3b3e
00000240: 9804 e5bc 7765 9abc b597 f6bc e606 a13d
00000250: 0d77 03bf 1db7 783d c635 84be b13f 803e
00000260: f190 7f3e 1385 23be dedd 1f3e f830 fabd
00000270: 9251 72bd 86af 94be 51d4 06be 1d22 adbd
00000280: fc83 c03d e765 f3bd c2d6 c8bd 0ba2 39bd
00000290: e46e 733e 575a dcbd 7ece 243c 2335 21bd
000002a0: be54 aabd ed4e 69be 8282 debd 165c adbb
000002b0: 1511 4bbd 3d59 3a3e cce4 44be 877f b03e
000002c0: b931 e23d 5ffa bb3c 3df7 24be 8125 f9bd
000002d0: baab e13d 4a0e bd3a e1d5 6f3d 5192 a23d
000002e0: fdf9 f33d cdb3 633e bc12 273d fdc4 413e
000002f0: 9e55 d4be 765e 57bd e775 afbd e494 823d
00000300: 6409 34be bf96 843c 0c8e a43d 1bb6 343c
00000310: 8e22 23bc efe5 85be 695f 83be 9c8a 0f3e
00000320: d57e 993e ffb6 1c3e f785 923e 0d71 993d
00000330: f4e6 c0bd d0cd 89be f3db 673d 1795 77bc
00000340: 95bb a43d 2c30 153e 78c2 973d d2c7 ebbe
00000350: 571b 943d dd06 08be dc8e 133e de00 b9bb
00000360: eb07 963d 2d01 38bd 4558 bc3d cd36 4cbd
00000370: 2406 293e ca1b 9bbd 491a d93d 4983 49be
00000380: 3a29 f23b 282d c83c 2ddf d2bd b5b4 0fbe
00000390: 5f8c b2be b906 233d d9d8 0c3f d7a1 9c3d
000003a0: 4dfa 983e 0347 45bc 0f4f 7f3d 1f4c d63d
000003b0: 9ea7 c23d f726 b03d 00df 533e f1e0 2c3e
000003c0: e054 c3bc 1716 863d 7af9 f0be 7f34 1dbd
000003d0: 6c1a 8cbe 3101 32be a5f4 0fbe 9ae0 f73d
000003e0: 4597 af3d f142 923d 39a2 803c dd54 cebd
000003f0: 202b 99bd b407 dabd 3c18 d83d f0a2 b23d
-0.24576548 -0.018169971 0.2870446 -0.02113509 0.37166786 -0.1541916 -0.09380555 -0.27898538
-0.41869873 -0.062463246 -0.07656605 -0.031083794 0.042166583 -0.059419796 -0.24838395 0.048782114
0.017001854 -0.21142781 0.016109718 0.020767001 0.27889872 -0.07252549 0.21112837 0.08865625
-0.14427617 0.21302556 0.14332369 -0.10770433 -0.07811375 -0.053067874 -0.07219279 0.1252042
0.28210178 0.04414539 0.022240452 -0.5181944 -0.067433946 -0.32567564 -0.18014771 -0.46866974
0.1849903 0.50051105 0.12483049 0.29879937 0.014810105 -0.18137595 -0.085643925 0.10102438
-0.013697279 0.21860904 -0.016006336 -0.054264493 -0.23816226 -0.16411406 0.00026847376 -0.05043986
-0.29906204 -0.36513332 -0.3155298 0.1507619 -0.0016728275 0.162552 0.106148496 0.056768645
-0.05049642 -0.037927408 -0.056117952 -0.016193438 0.050690822 -0.018847432 -0.05323152 -0.00977495
0.13436127 0.12073858 0.044401664 -0.004594458 0.27536488 0.060968567 -0.13353114 0.031762008
-0.4164619 -0.21813816 -0.017987909 0.15852784 -0.034350473 0.058513917 -0.22324489 -0.19011055
-0.24304233 -0.42949247 -0.09252602 0.015802106 0.25959453 -0.04790897 -0.10082553 -0.18134665
0.001872368 -0.34627354 -0.5504384 -0.09375772 0.17250241 0.08992861 -0.09676032 -0.257433
0.1981378 -0.082858175 0.12977082 -0.053585846 0.06538521 0.13815372 0.03472585 0.10422994
-0.14502563 -0.22159259 -0.17302221 -0.39268476 -0.023707865 -0.033042386 -0.39948633 -0.10769396
0.13503063 -0.18845321 -0.40794042 0.11777735 0.03270313 -0.15257125 0.105985865 -0.11545129
-0.14273183 0.08333637 0.23154593 0.56490463 0.0148819545 0.32880154 -0.34953013 0.042750273
-0.083242185 -0.12398342 0.03473396 -0.111454226 -0.21998435 -0.2520038 0.2610931 0.18337452
-0.027956292 -0.01884721 -0.030101636 0.07862644 -0.5135353 0.060721505 -0.25822276 0.25048593
0.24957635 -0.15968733 0.1561198 -0.12216371 -0.059159823 -0.29040164 -0.1316693 -0.08453772
0.09400174 -0.11884671 -0.09806587 -0.04532055 0.2377277 -0.107594185 0.010058997 -0.039357316
-0.083169445 -0.22784014 -0.10864736 -0.0052905185 -0.049576838 0.18198104 -0.19227904 0.34472296
0.1104464 0.022946535 -0.16109939 -0.121653564 0.11019082 0.0014423814 0.05855358 0.07938064
0.11912916 0.22236557 0.04078935 0.18922801 -0.4147157 -0.05258032 -0.0856741 0.06376055
-0.17581707 0.016185163 0.08034906 0.011029745 -0.009956969 -0.26151988 -0.2565873 0.14017719
0.29979578 0.15304182 0.28617832 0.07492266 -0.09419051 -0.26914835 0.056606244 -0.015111229
0.08043591 0.14569157 0.07410139 -0.46050888 0.07231777 -0.13283868 0.14409965 -0.0056458553
0.07325729 -0.044922996 0.091965236 -0.04985695 0.16506249 -0.0757366 0.106007166 -0.19678988
0.0073901685 0.024435595 -0.10296474 -0.14033778 -0.3487272 0.039801333 0.55018383 0.07648056
0.29878464 -0.012040856 0.062331256 0.10463738 0.09504627 0.08601182 0.20690536 0.16882683
-0.023844182 0.06547182 -0.47065336 -0.038380142 -0.27363908 -0.17383267 -0.14058168 0.12103386
0.08573774 0.07141674 0.015702354 -0.1007478 -0.074789286 -0.106460005 0.10551497 0.08722484

3.bias f4 [64]
00000000: 512a 83bd fc1d 69bd 59c8 6fbd 899a b0bd
00000010: 8156 b4bd 501c 263b e244 90bd 0a40 41bd
00000020: 5bd3 aebc 803e bfbd a638 c9bd 7ec4 a5bd
00000030: 8484 29bd 1b9d 2cbd e2b9 5bbd 88fe b4bd
00000040: 1f07 fdbb 4b24 873c 6f04 dabc c35d 96bb
00000050: 7cd3 31be ebd3 c7bd a36a 173d 108f 10be
00000060: d0ae 99bb 5ec4 f63b 03b4 c8bb 0dbd d63b
00000070: 64b4 98bd ad54 5bbc c7c1 ab3c 565f 80bc
00000080: 956a a5bd 9e30 20be fb19 5dbc 6dd7 ce3d
00000090: d13b c6bc 0fb1 483d 9f8b 6a3a 6fc6 a4bd
000000a0: 6666 2cbc 7778 efbc 6c0f 97bd c352 82bd
000000b0: 7978 c4bd 5932 d5bc 6898 a0bd 3d25 3ebe
000000c0: 9538 04bd e761 cebc 5fc5 24bd a320 5dbe
000000d0: cbd4 06bd f6bc 0ebd ee61 263c c50c 473d
000000e0: 0450 343d 3f1a 02be ce01 96bb aeb7 333d
000000f0: 4e75 2dbd 9fee 25bd 5b2a 523b d08f b6bd
-0.064045556 -0.05691336 -0.058540676 -0.08623225 -0.08805562 0.0025346465 -0.07044388 -0.047180213
-0.021341017 -0.09338093 -0.09825258 -0.080941185 -0.041386142 -0.042142015 -0.05364407 -0.088376105
-0.007721796 0.016496798 -0.026613442 -0.004588814 -0.17365831 -0.09757217 0.03696693 -0.14117074
-0.0046900287 0.007530733 -0.0061249747 0.0065532983 -0.07456282 -0.0133868875 0.020966424 -0.01567046
-0.080769695 -0.15643546 -0.013494964 0.10099683 -0.024198445 0.04899698 0.0008947197 -0.08045661
-0.010522461 -0.029232247 -0.07375988 -0.06363442 -0.09593291 -0.026024984 -0.07841569 -0.18568893
-0.032280523 -0.025193168 -0.04022729 -0.21594481 -0.03291778 -0.034848176 0.010155184 0.048596162
0.04402162 -0.12705325 -0.004577852 0.043876342 -0.0423482 -0.04051077 0.0032068703 -0.08914149

6.weight f4 [128, 64, 3, 3]
00000000: 89eb bcbd cf3b 49bd ac7c 203e 084c b6be
00000010: 55ce 80be fad8 82be 472e a9bd 15f9 16be
00000020: 7704 03bf 1c82 2c3d 23b3 703d 1c98 c8bc
00000030: 0aa1 acbc 0a57 d03c 623d 923e 4fba a73c
00000040: 4ca6 16be dfb6 33be 16a7 083e 9f23 da3d
00000050: d509 79be 6b2c 803b 05af 313d 964c 8b3d
00000060: d602 143d d5f7 2c3e 462b 87be 9088 8a3d
00000070: b200 5c3e 4c0a 163d 8840 55be 1a5a bfbd
00000080: d5aa 2a3e 7486 d0bd 18b2 a8be 5005 92be
00000090: d455 88bd deab 6abe 0181 19be 6dea 01be
000000a0: 49ee 2abc 44c5 31bf 7be8 903d 0ca1 27be
000000b0: 5367 bebe fd9f 893e 1c23 993d 83c8 10be
000000c0: 2a4a d5bd 6836 623d 78a6 673d bbf5 523e
000000d0: b645 833e f8ea 2a3d f4c4 3abd 58f6 3dbe
000000e0: a86c 88bd 57bf a2bd b7d8 c6bd 5f33 42be
000000f0: 2571 8b3e 0afa cbbe 1f71 72bd 7762 36be
00000100: 600a e9be fc23 6bbd deb6 413e ef50 6b3d
00000110: 752b e7bd 75a9 1b3e aeb1 1ebe 61d7 6abd
00000120: 4521 0ebe ff09 473e 80c5 703d 1fc2 ccbe
00000130: 61e8 e63c 4006 8e3e 3585 c3bd 00de 023e
00000140: 0c67 4dbe 6afb 9bbd 90ce 84bd 80fb c33c
00000150: 1579 b9be d405 93be 180d 413d 7648 88be
00000160: 299d 12be 6984 91be 0c04 353c 1ed6 023d
00000170: fac1 8a3b 0ca8 01bc 1ce1 9c3b e933 abbb
00000180: 56da 5a3d 9367 133d 5afe 25bc e784 083d
00000190: 66ab f1bd 4fc7 4d3e 867c 6c3b c054 4dbe
000001a0: e4b1 57be 0479 e13d 1e60 9dbe 178e 0bbf
000001b0: 351c e83e df40 9fbd b975 9b3e 2aad 6e3d
000001c0: 41cb 523e 7eb2 13be 60ed d13d 9b69 c73d
000001d0: 1aac 81be 3114 8f3e 8ab7 12bd d59b 533e
000001e0: 711d 15bf 794a 64be 524d b4bd 7a7d 81be
000001f0: 276e 80be 5bfa 453d 57db 00be ca94 3d3d
00000200: ba41 033d 8c85 ccbd 61c3 88bd f330 62be
00000210: 5fe9 00bd 83c9 633e 34bc 9dbe d81e da3e
00000220: f6e9 af3d ba31 113e 9952 82bc c5d5 86bd
00000230: 131f 1fbe 8cbf ecbd 0c51 a2bc c2cf 93bc
00000240: 596d 26be 4fb3 f23d de8e 913e 45b9 dfbd
00000250: 240c 00bd 57bd d7be e024 d43d 3141 9bbe
00000260: d3b0 0bbe 0f99 943e 5505 a03d d7d0 833c
00000270: 9209 793c d479 68be 5cdd a6bd e21a 96bd
00000280: d9c4 0abe f7f2 febc 560c 62bd 6fab 2bbe
00000290: e59c 6ebd b1e8 12bd d77c a13d 76dc b0bd
000002a0: 9d52 05be f7e5 923c 6c77 f0bc 1cb3 363e
000002b0: 6506 963e b0f1 8cbe 19f3 0dbe 8ece e7bc
000002c0: b08c 03be 5dbe 433c 7feb ea3d f933 9fbd
000002d0: ca16 d6bc 9426 5bbd 0f5d 763c 3421 503c
000002e0: 04a3 e13d d1f8 0cbd e8ec bdbd e338 90be
000002f0: 6d74 163e c413 40be 9628 653e 0a1d 9d3d
00000300: c84a 59bd fe45 bd3d 9c36 943e 6a31 4b3d
00000310: a776 b23c 66ca 8cbe da39 473e 6a22 15bd
00000320: 3771 9e3d 2c00 01bc 813e 8dbd 2860 1b3c
00000330: 0d14 303d 1df0 bd3d dbd5 9cbe 5800 0c3e
00000340: 46a8 00be aa53 2bbd 4c00 29bd f996 66be
00000350: b6ec ca3d 2090 97be c1de 4cbe bb80 c6bd
00000360: 4b91 8abe 7a2a 15bb 342b 593c d2bb 3b3d
00000370: 4202 31be 1176 55be 58b9 733d e32b 5e3e
00000380: f8ac 1ebe 3726 a0bc 6108 203e dbad a7bd
00000390: 7b7c 05be f353 f63d f280 6f3e 193d 303c
000003a0: dbd9 313d 43d3 99bd 7158 25bd 34d8 0fbd
000003b0: 85c9 2a3d 7aae 59bc 9a35 353d 71b8 3ebc
000003c0: b1d5 943c a876 aebc c399 153d 2621 5d3e
000003d0: 119a 4bbd 66f5 91be 19bc dabe babe 4abe
000003e0: 2f79 003e c94c 4cbd db30 933d 0e6e 9cbe
000003f0: b01c 1ebe db5f eabd e3b4 f93d fc34 ffbd
-0.09224612 -0.049129304 0.15672559 -0.35604882 -0.2515742 -0.25556165 -0.0826078 -0.14743455
-0.5117869 0.04211627 0.058764588 -0.024486594 -0.021072883 0.025432128 0.28562456 0.020474581
-0.14711875 -0.17550229 0.13344988 0.106513254 -0.24320157 0.003911545 0.043379802 0.06801717
0.036135517 0.16891415 -0.26400203 0.067643285 0.2148464 0.036630914 -0.20825398 -0.093433574
0.1666673 -0.10181895 -0.32948375 -0.28519678 -0.066569954 -0.22917125 -0.14990617 -0.12687083
-0.010432788 -0.6944163 0.07075592 -0.16370028 -0.37188205 0.26879874 0.074774 -0.14138989
-0.10414536 0.055227667 0.05655524 0.20601551 0.25639123 0.04172799 -0.045597985 -0.18551004
-0.066613495 -0.079466514 -0.09709304 -0.18964909 0.2723476 -0.39839202 -0.059189912 -0.17810999
-0.45515728 -0.057407364 0.18917415 0.05745023 -0.11287586 0.15201361 -0.15497467 -0.057334308
-0.13879879 0.19437407 0.0587821 -0.39991853 0.028186979 0.27739143 -0.095468916 0.12779999
-0.2005884 -0.07616313 -0.06484711 0.023923635 -0.3622519 -0.28715384 0.047131628 -0.26617783
-0.14317764 -0.28421333 0.011048328 0.03194248 0.0042345496 -0.007913601 0.0047875773 -0.005224694
0.053430878 0.035987448 -0.010131443 0.03332987 -0.1180027 0.20095561 0.0036084964 -0.20051861
-0.21063954 0.1100941 -0.30737394 -0.54513687 0.4533402 -0.07776045 0.30363253 0.05827061
0.20585348 -0.14423558 0.10250354 0.097369395 -0.25326616 0.27945092 -0.035819568 0.20664914
-0.5824805 -0.22294034 -0.0880381 -0.25291044 -0.2508404 0.04833446 -0.12583672 0.046284474
0.032045104 -0.099864095 -0.066778906 -0.22088985 -0.03147256 0.2224484 -0.3080765 0.42601657
0.085895464 0.14179125 -0.015908526 -0.06583742 -0.15539198 -0.11559972 -0.019814037 -0.018043403
-0.1625265 0.11850607 0.28429312 -0.10924009 -0.03126158 -0.42136642 0.10358596 -0.30323175
-0.13641672 0.29023024 0.07813517 0.016090794 0.015200036 -0.22702724 -0.0814769 -0.07329346
-0.13551654 -0.031121714 -0.055187546 -0.16764615 -0.058255095 -0.035866443 0.078851394 -0.086357996
-0.13019796 0.017931921 -0.02935382 0.17841762 0.29301754 -0.27528143 -0.13862266 -0.028296735
-0.12846637 0.011947242 0.114706986 -0.07773585 -0.026133914 -0.053503588 0.015036835 0.012703229
0.11017421 -0.034416977 -0.09273702 -0.281684 0.1469285 -0.1875754 0.22378764 0.076715544
-0.053049833 0.092418656 0.28947914 0.04960767 0.021785093 -0.27498168 0.19455662 -0.036409773
0.07736438 -0.007873576 -0.06896687 0.009483375 0.042987872 0.092743136 -0.3063191 0.13672006
-0.12564191 -0.041827835 -0.04126005 -0.22518529 0.0990843 -0.29602146 -0.20006849 -0.09692522
-0.27063975 -0.0022760914 0.013254929 0.045833416 -0.17286018 -0.2084582 0.05950293 0.21696429
-0.1549567 -0.019549472 0.15628196 -0.08187457 -0.13035767 0.12027731 0.23389032 0.010756754
0.043420654 -0.07510998 -0.040367547 -0.035118297 0.04169609 -0.013286227 0.04424057 -0.011640654
0.018168302 -0.021296814 0.03652359 0.21594676 -0.049707476 -0.28507537 -0.42721632 -0.19799319
0.12546228 -0.049877916 0.07187053 -0.30552715 -0.15440631 -0.11444064 0.121927045 -0.12461278

6.bias f4 [128]
00000000: 85ec 82bc 3856 f2bd f26b a3bc 9a07 56bd
00000010: 04f3 37bd 93d5 f3bd b2d3 0d3c bbe9 95bd
00000020: a445 d7bd 898a f6bd 0b76 233b 4ed2 93bd
00000030: f366 9abd 80fd a1bd 74d6 53bd 318f 18bc
00000040: 835f 59bd a009 01be b072 e63a 256f ffbc
00000050: c4e1 15be e27d 2cbd a0f7 d1bd b807 a2bd
00000060: 90f6 bdbd 0b32 65be a514 49bd fb90 bcbd
00000070: 642f 06be 38ce 03be 2fa8 c0bd e4a8 d03c
00000080: 847a 42be 312b 93bc feb3 c4bd efc4 77be
00000090: e3b4 2bbd ab8e 1ebe 38ec 05bd 4d5c 9fbd
000000a0: 5418 47bd 0388 523c bca1 a4bd 7097 a6bd
000000b0: dacf 70bd 757e 40bd 2d20 75bc 9dd3 43bd
000000c0: 7151 67be facd a3bd 4942 d5bd ad87 c0bd
000000d0: 1e25 aabd 2d12 65be 0053 d2bd 0c2d 1fbe
000000e0: 9dfe 993d a79e 11bc f559 bebd 20da c5bd
000000f0: 9f31 12be 9cf3 5bbe e56c 10be a34c d2bd
00000100: 8573 e9bd c133 c2bd 24ce 46be 4f6b 02be
00000110: 493d 49bd f7a1 aabe 2dbe fbbd a7bc 4dbe
00000120: 7e01 25be bd7b 93bd fc34 4bbe 4663 6fbd
00000130: bc06 ffbd adba 3dbe 5987 30be 551c aebd
00000140: f0ce d1bd ade2 65bd 2a46 10be f063 50be
00000150: e31f 9ebe 215b 18be 6a4b 59bd 4404 52be
00000160: 6d3a 7cbc dbae 2abe 9734 1fbc c891 a9bd
00000170: 2dee a0bc 1e8d a43c a523 bbba 726e 20bd
00000180: 05c4 313d f851 b4bd 6d76 debd bf13 a5bd
00000190: d237 c2bd 8bd3 4fbb 0066 06be d440 4ebe
000001a0: 0281 debd 7884 883d c96b 32be 6c53 88bc
000001b0: cf29 86bd d884 84bd 8852 a0bb f75d 16be
000001c0: c076 78bd b4cc 62be e509 04bd 17d5 67bb
000001d0: b89a 82be b5be 42bd 8f43 71bd aa7c 593d
000001e0: 27f4 80bd 6ad4 03be 14a4 35bd 1a51 4c3d
000001f0: 7c4f 15be 5434 6abd c2a1 a5bd f127 07be
-0.015981922 -0.11832851 -0.019948933 -0.052253343 -0.044909492 -0.119059704 0.008656429 -0.07319971
-0.1051133 -0.12038142 0.0024942185 -0.07217847 -0.07539167 -0.079096794 -0.05171819 -0.009311483
-0.053069603 -0.12601328 0.0017581787 -0.031180928 -0.14636904 -0.04211224 -0.10252309 -0.079116285
-0.09275544 -0.22382371 -0.049091954 -0.0920734 -0.13104016 -0.12871635 -0.094070785 0.025471158
-0.18992049 -0.017964931 -0.09604643 -0.24196218 -0.041920554 -0.15484111 -0.03269598 -0.07781277
-0.048607185 0.0128498105 -0.08038661 -0.08134353 -0.058791973 -0.0469956 -0.014961285 -0.047809232
-0.22589661 -0.07998271 -0.104130335 -0.09400878 -0.08307861 -0.22370215 -0.10269737 -0.15544528
0.07519267 -0.008887923 -0.09294502 -0.09660745 -0.14276741 -0.21479648 -0.1410404 -0.102685235
-0.11398987 -0.094825275 -0.19414574 -0.12736247 -0.04913071 -0.33326694 -0.122921325 -0.20091496
-0.1611385 -0.072013356 -0.1984443 -0.058444284 -0.12452456 -0.18528242 -0.17239131 -0.08501498
-0.10244548 -0.056124378 -0.14089265 -0.20350623 -0.30883703 -0.14878513 -0.053050436 -0.2050944
-0.015394789 -0.16668265 -0.009717128 -0.08279759 -0.019644821 0.020086821 -0.0014277591 -0.03916783
0.04339983 -0.08804697 -0.10862432 -0.08060407 -0.09483303 -0.0031711783 -0.13124847 -0.20141917
-0.1086445 0.066658914 -0.1742393 -0.016641341 -0.06550943 -0.064706504 -0.004892651 -0.14684282
-0.060660124 -0.221484 -0.032236 -0.0035374814 -0.25508666 -0.047545154 -0.05890232 0.053097405
-0.06296568 -0.12873998 -0.04434593 0.049882032 -0.14581102 -0.05717881 -0.080874935 -0.1319883

11.weight f4 [10, 1152]
00000000: 9cf6 3ebe 3b87 24be 23c4 2d3e 239f 30be
00000010: 690a 87bd 304c 143e 2212 d03d 8f44 4b3e
00000020: 5318 06be 0383 0bbe 723f a4bd 0dc6 873d
00000030: c8d6 a03d 20a2 f13d 7ecf dcbe 6e6c 803d
00000040: 6855 8bbd c0ec 8fbd 3364 853c 09f2 35bb
00000050: 31af 9dbd 735d a7bc 050c 33be 0adc 903e
00000060: a73d 44bd 7d8e 1d3e 34fc 3c3d f4f1 4fbd
00000070: bbe1 0d3c dd73 17bd e346 1bbd 7a21 2abd
00000080: c32b afbc ff7d 713c c6fb d93c 9962 24bd
00000090: f225 0a3d 36e7 923c db33 88be b486 953c
000000a0: 64ac 97bd ce29 d63d 0af6 133e dd61 6abd
000000b0: 288d 4fbe 0526 07bd 7099 01bd 8db5 233e
000000c0: 2a28 7fbe 6309 b5bd 5d57 67bd 29e2 94bb
000000d0: b22b 443e a34f febe 77b7 cd3c 06df 5bbc
000000e0: ae9b 82bc f3a9 75bb 50cd 78bc 839a 2ebc
000000f0: a294 98b9 8b1c 4f3c bff7 c93a 023b e6bd
00000100: 5458 3abe 6e27 e2be 0c7d 7f3e 4210 d73d
00000110: a139 393e 5ec7 98be a82d 93bd 4bcf 213e
00000120: 7262 273d 2629 8c3e 3529 47be cf86 67be
00000130: 4010 2ebe b353 a5bd bf6d 63bd 3750 c43d
00000140: c7da 543d ba2d 39be 60fe 04be e3e3 acbc
00000150: 2536 31bc 7576 8d3d d83a c73d 3e68 423d
00000160: 44b7 6dbe 61a8 03bf f3b9 fcbc 23ac 01bd
00000170: abc2 51bd 0ab7 ef3c 1993 b63b 233c 033c
00000180: e241 eabc f240 58bd 0cba 3c3a a7db 0dbd
00000190: 4deb 213b 6f62 94bc 6f9e 62bc cabf ec3c
000001a0: 7e51 6bbc 3ab2 57bb 854a 89bc 6ac0 32bc
000001b0: 80fb 88bd 5c91 04bd bee9 4f3e f2b9 143e
000001c0: a83c 12be d415 b23b f53b 663e a1cd d8be
000001d0: cf1c 0fbd 245a 8cbd 69e5 3a3c e7b3 3c3d
000001e0: a321 1c3e ee5e ec3d dd15 bfbe ca1d c23d
000001f0: 73ee 89bd 3ecd 023e e222 48bc d66f 523b
00000200: 4d27 b8bc 6040 28bd cee0 40bc 81f1 8e3c
00000210: 6bb1 21bd 5cec 74bd fb7a 80bc 4081 b7bb
00000220: f168 8dbc c757 58bc 3f1c e9bb 02ba 8abc
00000230: 0bac fd3a 8761 95ba dec4 25bc 3c18 253b
00000240: 9e4e 89bc 733d 0bbb 1e04 9cbd ecef 6abc
00000250: f661 38bc d4c7 66bd 6e57 ac3c 38ea 1f3d
00000260: 2ce3 86bd 0939 24bd 02dc 8ebe 4571 e9bd
00000270: fec3 033e d894 afbd d153 9b3e 50cd ff3c
00000280: f98c 56bd 5992 3fbe 787f 8f3d 71a1 813d
00000290: 4604 cd3c c33c bb3d 4508 42be ee48 863d
000002a0: 933b 943e 3769 dabd 90c5 a9bd 1172 3cbe
000002b0: 540a a0bd f26d 88be 6a4b 9ebd c8fa 133d
000002c0: 9256 313e e08a f13d c2d0 98bd f892 ecbd
000002d0: a592 9c3d 652b b3bc e74d debd 7681 853e
000002e0: 96f8 1abb e836 2fbd 29ab 143d 0f52 323e
000002f0: ba00 833c 2e0c 4ebd ca0f 87bc d920 81bb
00000300: 688f 42bc 4d63 463c 86a9 b53c 5e74 4abc
00000310: af20 713c 7897 a33b eaeb 6cbd 859e fbbd
00000320: aaa7 243e 7f89 343e a5bd 88bd d5b9 ccbd
00000330: e1bd 42be ed2e e73d 7111 55be 0744 4dbe
00000340: 41b0 4b3d 4c0b 77bd e36f d2bd 875c d33d
00000350: aa0b 33be da35 59bc f137 11be c757 a23d
00000360: d994 cabd 8e29 90be a97d 10be dac8 64bd
00000370: 00d5 03be 8088 b0bd f62b 273d 786a 673d
00000380: ee2b 2b3e d8ee 5fbd 4d5b 0cbe 66aa 103e
00000390: 2c27 c6bc ff36 c1bd bfe2 3f3e 73e6 0bbe
000003a0: 7776 cabc f00d afbd a456 993b 851d 0fbe
000003b0: 6ed1 a2bd 07a6 efbe 5c73 7abb 9d76 18bc
000003c0: 1793 1bbd 6cc4 7d3e ca72 353e 114b 89bd
000003d0: d8ee d4bd be8e 75bd ee09 a7be 40f5 0a3e
000003e0: 9cd4 0abd cb47 a3bc 9ff3 56be 6ad8 2fbc
000003f0: 8da9 72be 1ea5 873c 71a2 1abe 109e cdbe
-0.18648762 -0.16067211 0.16969351 -0.17248206 -0.065937825 0.14482188 0.101597086 0.19850372
-0.13095216 -0.13624196 -0.08019914 0.06629572 0.07853466 0.11798501 -0.43127054 0.06270681
-0.06803399 -0.07027578 0.01628313 -0.0027762672 -0.07699431 -0.020430302 -0.17485054 0.28292876
-0.04791036 0.15386386 0.046138957 -0.050767854 0.008659775 -0.03697573 -0.0379094 -0.041535832
-0.021383172 0.0147395125 0.026609313 -0.040133093 0.033727594 0.017932516 -0.26602063 0.018252708
-0.07405928 0.10457192 0.14449325 -0.057222236 -0.2026869 -0.032995243 -0.03164047 0.15987225
-0.24917665 -0.08839681 -0.0564798 -0.004543562 0.19157293 -0.49670133 0.025111897 -0.013419872
-0.015943374 -0.003748533 -0.015185669 -0.010656956 -0.0002910244 0.0126410825 0.0015408917 -0.112417236
-0.18197757 -0.44170707 0.24950045 0.10501148 0.1808839 -0.29839605 -0.071864426 0.15801732
0.04086537 0.27375144 -0.19449313 -0.22610019 -0.16998386 -0.08072605 -0.055524584 0.09585612
0.051966455 -0.1808385 -0.12987661 -0.021104759 -0.010816132 0.069073595 0.097280204 0.047462694
-0.23214442 -0.514288 -0.030850386 -0.031658303 -0.05121104 0.029262085 0.0055717346 0.008009943
-0.028595868 -0.05279631 0.0007199354 -0.034633305 0.00247069 -0.018113343 -0.013831719 0.028900046
-0.014362691 -0.0032912628 -0.016759166 -0.010910133 -0.06688595 -0.032365188 0.2030401 0.14524058
-0.14280951 0.005434731 0.2248381 -0.42344382 -0.034939583 -0.068531305 0.011407235 0.046070006
0.15247206 0.11541544 -0.37321368 0.09478338 -0.06734934 0.12773606 -0.012215348 0.0032110116
-0.022479678 -0.041077018 -0.011772348 0.017449142 -0.03947584 -0.059795722 -0.015683642 -0.0056001246
-0.017261954 -0.0132045215 -0.007113963 -0.016934399 0.0019353641 -0.0011396863 -0.010117738 0.0025191447
-0.01676112 -0.0021246343 -0.07617973 -0.014339428 -0.011253824 -0.056342915 0.021037783 0.039041728
-0.06586298 -0.040093455 -0.27902228 -0.113985576 0.12867734 -0.085733116 0.30337384 0.03122583
-0.052380536 -0.18708171 0.070067346 0.06329621 0.025026452 0.09142449 -0.18948467 0.06556879
0.28951702 -0.106645994 -0.08289635 -0.18402888 -0.0781447 -0.26646382 -0.07729228 0.036127836
0.1731818 0.117940664 -0.074616924 -0.115514696 0.07645158 -0.021871278 -0.108547024 0.26075333
-0.0023646704 -0.042776972 0.036296044 0.17414115 0.015991557 -0.050304584 -0.016487021 -0.0039406833
-0.011875011 0.012108636 0.022175562 -0.012356846 0.014717265 0.0049924217 -0.057842173 -0.122860946
0.16079584 0.17630576 -0.06676797 -0.09996382 -0.19017746 0.11288247 -0.20807435 -0.20045482
0.049728636 -0.060313508 -0.10275247 0.103203826 -0.17484918 -0.013257468 -0.14181496 0.079268984
-0.09891672 -0.28156704 -0.14110436 -0.05585561 -0.12874222 -0.08619785 0.04081341 0.05649802
0.16715977 -0.05467114 -0.13706703 0.14127502 -0.0241886 -0.09434318 0.1873884 -0.13662128
-0.024714692 -0.0854758 0.004679518 -0.13976105 -0.07950102 -0.46806356 -0.0038215732 -0.009305623
-0.037982073 0.2478196 0.1771957 -0.06703771 -0.10397118 -0.059950583 -0.32624763 0.13570118
-0.033894166 -0.019931694 -0.20991372 -0.0107327495 -0.23697491 0.016558226 -0.15101029 -0.40159655

11.bias f4 [10]
00000000: bf87 3cbb cae0 813e 0646 07be 7e6e d93d
00000010: 217c 8a3c e5ae 99bd 5bb7 95bd f61d a43c
00000020: abd1 123d 0632 a8bd
-0.0028767434 0.25366813 -0.13210306 0.10616778 0.016904892 -0.075040616 -0.07310363 0.020033818
0.035844486 -0.08212666
